OPENMV代码程序（4.5.9-4.6.2）/综合例程（机械臂）/trained.tflite (tflite, 56384 bytes, 21 tensors)

model_1/logits/Conv2D i1 [4, 1, 1, 32]
00000000: 2cca b4bf 61dd 12c2 61eb 7d66 b2e7 3be2
00000010: 00f7 8147 ec61 a779 30ff ea00 53bf 26ed
00000020: 404e b3f1 d928 7f2b d6bf 941b 5bcb 4992
00000030: 739d ffac 048a b7f1 f1aa 41b4 db9e ece8
00000040: e060 1350 e5f8 5924 bf87 40d6 b54d 813e
00000050: 2e1f 50aa ecf0 e4d0 1fd4 4a9a e910 3b41
00000060: 3bc1 470a f25c 11fa 0298 1a60 41f5 81eb
00000070: 5f92 68ee 94fa 08d3 6300 a24f b666 1f35
44 -54 -76 -65 97 -35 18 -62
97 -21 125 102 -78 -25 59 -30
0 -9 -127 71 -20 97 -89 121
48 -1 -22 0 83 -65 38 -19
64 78 -77 -15 -39 40 127 43
-42 -65 -108 27 91 -53 73 -110
115 -99 -1 -84 4 -118 -73 -15
-15 -86 65 -76 -37 -98 -20 -24
-32 96 19 80 -27 -8 89 36
-65 -121 64 -42 -75 77 -127 62
46 31 80 -86 -20 -16 -28 -48
31 -44 74 -102 -23 16 59 65
59 -63 71 10 -14 92 17 -6
2 -104 26 96 65 -11 -127 -21
95 -110 104 -18 -108 -6 8 -45
99 0 -94 79 -74 102 31 53

model_1/head/Conv2D i1 [32, 1, 1, 96]
00000000: e3d7 6010 64fc ad9e 31a4 9407 4010 e23a
00000010: cfe9 c6ce b798 0d74 810f 55d6 6f02 efb6
00000020: 57ca a747 999b 9f25 4ca4 9c6f 3f97 71ed
00000030: 19c6 db49 b2d3 ab72 184b 7596 b85d d530
00000040: fd17 4a66 3c6a 5d8d 6f89 3357 9b10 cc1e
00000050: 381c 5ed3 c9d8 b04f 096d fe96 124a 1cf5
00000060: dd14 ce04 e743 1efc 49ba b758 35ea 1835
00000070: 59e6 1757 e3f7 101a f40f e74f 0c04 50d6
00000080: 2d52 fd19 0a0d e2d3 d2f9 f4b9 ea25 eedb
00000090: f3be 5626 fe3f cbe0 084e 1f44 d858 d0c6
000000a0: da1e 3f23 531d 0f07 af27 db24 40e3 d220
000000b0: c645 c281 1857 cbca 1413 4717 444e 15d3
000000c0: 1d32 b93f e2c4 3d69 c043 d755 47e6 4a92
000000d0: c0e2 1730 c0e9 6509 b73a 5512 b250 354a
000000e0: b9e3 a196 c141 60ec 81a2 ff08 b45c ddb0
000000f0: 5616 5db5 c234 0703 b44f bcfc fc36 ee2a
-29 -41 96 16 100 -4 -83 -98
49 -92 -108 7 64 16 -30 58
-49 -23 -58 -50 -73 -104 13 116
-127 15 85 -42 111 2 -17 -74
87 -54 -89 71 -103 -101 -97 37
76 -92 -100 111 63 -105 113 -19
25 -58 -37 73 -78 -45 -85 114
24 75 117 -106 -72 93 -43 48
-3 23 74 102 60 106 93 -115
111 -119 51 87 -101 16 -52 30
56 28 94 -45 -55 -40 -80 79
9 109 -2 -106 18 74 28 -11
-35 20 -50 4 -25 67 30 -4
73 -70 -73 88 53 -22 24 53
89 -26 23 87 -29 -9 16 26
-12 15 -25 79 12 4 80 -42
45 82 -3 25 10 13 -30 -45
-46 -7 -12 -71 -22 37 -18 -37
-13 -66 86 38 -2 63 -53 -32
8 78 31 68 -40 88 -48 -58
-38 30 63 35 83 29 15 7
-81 39 -37 36 64 -29 -46 32
-58 69 -62 -127 24 87 -53 -54
20 19 71 23 68 78 21 -45
29 50 -71 63 -30 -60 61 105
-64 67 -41 85 71 -26 74 -110
-64 -30 23 48 -64 -23 101 9
-73 58 85 18 -78 80 53 74
-71 -29 -95 -106 -63 65 96 -20
-127 -94 -1 8 -76 92 -35 -80
86 22 93 -75 -62 52 7 3
-76 79 -68 -4 -4 54 -18 42

model_1/block_6_expand/Conv2D i1 [96, 1, 1, 16]
00000000: ef64 b620 2ae7 5f46 c407 26a1 427f bd10
00000010: c9e1 c2e1 ec36 1681 26cc dfc1 efc6 c800
00000020: e7e8 1f4a 112a 997f e506 4dc6 e6c6 d644
00000030: 7a9b 57f6 f6da dc7f e53d 5e36 f43e 040c
00000040: cadd fa21 a010 df81 05f1 13f2 2c2b 7a5e
00000050: 7f2a e7f1 b60c 1c40 0806 485c 6e21 ab09
00000060: 14e7 d0d5 c412 f9d7 cad7 de12 5838 7ff2
00000070: c015 deb6 f8ce c70b b428 c9d1 81d1 fc58
00000080: 332e 4201 2d13 440b 39e7 2b05 81f2 b30e
00000090: d944 21d5 e4f6 1bf5 e836 d30c 287f 1b19
000000a0: 573d d53d e6f6 30ce b5dd be8e 81b6 125f
000000b0: 3a06 33fe fcdc 0e61 a312 ed0c fd06 3b7f
000000c0: caed 10fc 1003 7f29 cd19 0bf4 e952 cd6c
000000d0: 161c 112e 7f24 6952 d04b bdcf 2c5d 91f0
000000e0: 9479 fff1 fdff 45fd da1d 7ffe a40f d038
000000f0: fbf5 81d8 59d0 abda e4f0 f1c1 fdb3 ce32
-17 100 -74 32 42 -25 95 70
-60 7 38 -95 66 127 -67 16
-55 -31 -62 -31 -20 54 22 -127
38 -52 -33 -63 -17 -58 -56 0
-25 -24 31 74 17 42 -103 127
-27 6 77 -58 -26 -58 -42 68
122 -101 87 -10 -10 -38 -36 127
-27 61 94 54 -12 62 4 12
-54 -35 -6 33 -96 16 -33 -127
5 -15 19 -14 44 43 122 94
127 42 -25 -15 -74 12 28 64
8 6 72 92 110 33 -85 9
20 -25 -48 -43 -60 18 -7 -41
-54 -41 -34 18 88 56 127 -14
-64 21 -34 -74 -8 -50 -57 11
-76 40 -55 -47 -127 -47 -4 88
51 46 66 1 45 19 68 11
57 -25 43 5 -127 -14 -77 14
-39 68 33 -43 -28 -10 27 -11
-24 54 -45 12 40 127 27 25
87 61 -43 61 -26 -10 48 -50
-75 -35 -66 -114 -127 -74 18 95
58 6 51 -2 -4 -36 14 97
-93 18 -19 12 -3 6 59 127
-54 -19 16 -4 16 3 127 41
-51 25 11 -12 -23 82 -51 108
22 28 17 46 127 36 105 82
-48 75 -67 -49 44 93 -111 -16
-108 121 -1 -15 -3 -1 69 -3
-38 29 127 -2 -92 15 -48 56
-5 -11 -127 -40 89 -48 -85 -38
-28 -16 -15 -63 -3 -77 -50 50

model_1/block_5_project/Conv2D i1 [16, 1, 1, 96]
00000000: 9b30 46d8 a1fe c3ff cb0d dfdb 201d 29cc
00000010: 0a09 7104 05d4 7f3e 280d fd23 c58c a303
00000020: c7cc 2711 ec15 011a ff09 96f4 b2e7 0562
00000030: f0ee c3fd f009 1dc9 9dfc f74d 340e da07
00000040: dbbc bf0d cfbf 1611 08f5 aaca c512 d00e
00000050: d63a 54c1 0932 f92b 0afb f4da e8d5 b1f8
00000060: 1b13 2ece aee0 fd09 ee14 2bc5 ffe9 cade
00000070: 0803 c116 f2b4 092f f6c2 10d4 3794 64ba
00000080: 331c f228 1d47 eed8 240a f3e3 022a 81de
00000090: c7cd f1f4 19d3 e033 fe05 e709 0c39 e8a7
000000a0: f1ef c8fc 07fc b4f8 dded 15bb 0f13 29b5
000000b0: e7e4 b5e0 10d7 f320 b7f9 c830 1436 c938
000000c0: 58da 0f12 14b2 3d08 fbf7 f4f2 b9e7 fcdc
000000d0: a1cf db2e 04c6 cf21 02b6 01e3 e03b c37f
000000e0: ca78 e420 feee f4f3 9558 531a be0e edf1
000000f0: 2f03 deca 39ea e73e 3ffd 2efb 0f28 e307
-101 48 70 -40 -95 -2 -61 -1
-53 13 -33 -37 32 29 41 -52
10 9 113 4 5 -44 127 62
40 13 -3 35 -59 -116 -93 3
-57 -52 39 17 -20 21 1 26
-1 9 -106 -12 -78 -25 5 98
-16 -18 -61 -3 -16 9 29 -55
-99 -4 -9 77 52 14 -38 7
-37 -68 -65 13 -49 -65 22 17
8 -11 -86 -54 -59 18 -48 14
-42 58 84 -63 9 50 -7 43
10 -5 -12 -38 -24 -43 -79 -8
27 19 46 -50 -82 -32 -3 9
-18 20 43 -59 -1 -23 -54 -34
8 3 -63 22 -14 -76 9 47
-10 -62 16 -44 55 -108 100 -70
51 28 -14 40 29 71 -18 -40
36 10 -13 -29 2 42 -127 -34
-57 -51 -15 -12 25 -45 -32 51
-2 5 -25 9 12 57 -24 -89
-15 -17 -56 -4 7 -4 -76 -8
-35 -19 21 -69 15 19 41 -75
-25 -28 -75 -32 16 -41 -13 32
-73 -7 -56 48 20 54 -55 56
88 -38 15 18 20 -78 61 8
-5 -9 -12 -14 -71 -25 -4 -36
-95 -49 -37 46 4 -58 -49 33
2 -74 1 -29 -32 59 -61 127
-54 120 -28 32 -2 -18 -12 -13
-107 88 83 26 -66 14 -19 -15
47 3 -34 -54 57 -22 -25 62
63 -3 46 -5 15 40 -29 7

model_1/block_5_depthwise_BN/FusedBatchNormV3;model_1/block_5_depthwise/depthwise;model_1/block_6_expand/Conv2D i1 [1, 3, 3, 96]
00000000: 217f 07fe dd06 2c2c 3fd1 9f1a fd01 15e6
00000010: 9201 0c0b 2636 595d 0b03 def0 fcfa 04e4
00000020: bcf6 e77f fb37 09f1 17d5 f70d abfc 15f0
00000030: f1a5 eff7 0433 f4f6 bbc9 ca81 81f8 aa10
00000040: f525 24e5 ed1c 27f0 e605 280d 02e9 b920
00000050: 019f 38da c5da f204 ac0e b727 40f2 2afe
00000060: dbda 0549 fe6d eb04 541d 8124 f8cc 9e76
00000070: 854b 214d 7c04 667f 1d1e 071f fd7f e681
00000080: 3a3e 0f41 3e5e eb81 7ff2 4e7f f5bf 7fc0
00000090: fe8f 9ee2 117f f081 0024 8194 de81 f966
000000a0: d351 76db 0e7f 7df6 a818 e387 1ddd 077f
000000b0: f8b5 7fb6 96de 694e 4a7f aefc 7fe7 7f22
000000c0: 1193 0fe7 edf2 f12e 1141 cf10 032a 06c4
000000d0: dff6 0309 1f37 4172 11d9 1c22 fe0a f2be
000000e0: c2af e65b fe0e 1503 f516 ee35 f1fe 050c
000000f0: 0fd7 17fe f4fa 04fe 2fb4 f4bf 9e1a c5eb
33 127 7 -2 -35 6 44 44
63 -47 -97 26 -3 1 21 -26
-110 1 12 11 38 54 89 93
11 3 -34 -16 -4 -6 4 -28
-68 -10 -25 127 -5 55 9 -15
23 -43 -9 13 -85 -4 21 -16
-15 -91 -17 -9 4 51 -12 -10
-69 -55 -54 -127 -127 -8 -86 16
-11 37 36 -27 -19 28 39 -16
-26 5 40 13 2 -23 -71 32
1 -97 56 -38 -59 -38 -14 4
-84 14 -73 39 64 -14 42 -2
-37 -38 5 73 -2 109 -21 4
84 29 -127 36 -8 -52 -98 118
-123 75 33 77 124 4 102 127
29 30 7 31 -3 127 -26 -127
58 62 15 65 62 94 -21 -127
127 -14 78 127 -11 -65 127 -64
-2 -113 -98 -30 17 127 -16 -127
0 36 -127 -108 -34 -127 -7 102
-45 81 118 -37 14 127 125 -10
-88 24 -29 -121 29 -35 7 127
-8 -75 127 -74 -106 -34 105 78
74 127 -82 -4 127 -25 127 34
17 -109 15 -25 -19 -14 -15 46
17 65 -49 16 3 42 6 -60
-33 -10 3 9 31 55 65 114
17 -39 28 34 -2 10 -14 -66
-62 -81 -26 91 -2 14 21 3
-11 22 -18 53 -15 -2 5 12
15 -41 23 -2 -12 -6 4 -2
47 -76 -12 -65 -98 26 -59 -21

model_1/block_5_expand/Conv2D i1 [96, 1, 1, 16]
00000000: cd30 fadb ecc3 b7e1 44d4 1fc9 4693 1081
00000010: b150 b59f d420 e237 d207 57e0 1a7f 0512
00000020: ca02 a701 dcc0 23cc a17f 4e0a 1a49 c47e
00000030: dacb fed3 ae11 d58d fc04 36b8 c6e7 81e2
00000040: 40f6 d82a c106 8129 1741 1559 fdfc deb3
00000050: af44 aedf 2bdc fdbf 58da 1fe6 f6ad 81b7
00000060: dfd8 d033 a146 42d4 e4e1 7fe8 f608 8911
00000070: e06f 7fbf 4454 00c6 2446 a4f1 380e 114a
00000080: c60e 25fb 27fd 577f c2f0 bdaf 2c5a b7c6
00000090: 1f26 7830 90d4 818f 4e1f 7608 d595 40da
000000a0: f390 01bf 813c 2724 e2d1 fd28 f338 911c
000000b0: 65ce 0461 a0e3 36fa 7f70 ca25 11aa e762
000000c0: cebd 7f06 41f6 2523 59ec 673c e000 9036
000000d0: f7e0 1723 04f9 7f22 a50f fd0a e764 5caa
000000e0: 75b1 7f0f 4144 603d 4b3f 4224 37cd 25be
000000f0: f97f 0fcf 1666 ba45 d7e2 d5fb cb75 decd
-51 48 -6 -37 -20 -61 -73 -31
68 -44 31 -55 70 -109 16 -127
-79 80 -75 -97 -44 32 -30 55
-46 7 87 -32 26 127 5 18
-54 2 -89 1 -36 -64 35 -52
-95 127 78 10 26 73 -60 126
-38 -53 -2 -45 -82 17 -43 -115
-4 4 54 -72 -58 -25 -127 -30
64 -10 -40 42 -63 6 -127 41
23 65 21 89 -3 -4 -34 -77
-81 68 -82 -33 43 -36 -3 -65
88 -38 31 -26 -10 -83 -127 -73
-33 -40 -48 51 -95 70 66 -44
-28 -31 127 -24 -10 8 -119 17
-32 111 127 -65 68 84 0 -58
36 70 -92 -15 56 14 17 74
-58 14 37 -5 39 -3 87 127
-62 -16 -67 -81 44 90 -73 -58
31 38 120 48 -112 -44 -127 -113
78 31 118 8 -43 -107 64 -38
-13 -112 1 -65 -127 60 39 36
-30 -47 -3 40 -13 56 -111 28
101 -50 4 97 -96 -29 54 -6
127 112 -54 37 17 -86 -25 98
-50 -67 127 6 65 -10 37 35
89 -20 103 60 -32 0 -112 54
-9 -32 23 35 4 -7 127 34
-91 15 -3 10 -25 100 92 -86
117 -79 127 15 65 68 96 61
75 63 66 36 55 -51 37 -66
-7 127 15 -49 22 102 -70 69
-41 -30 -43 -5 -53 117 -34 -51

model_1/block_4_project/Conv2D i1 [16, 1, 1, 96]
00000000: 1922 0d0b e4bf ef0b eabe 11f2 38ba 3724
00000010: a0f2 1e00 5a11 b911 f94d 7f41 0648 34e7
00000020: 0404 08e2 2311 edfc 6b05 20e0 f7f1 00ca
00000030: 0ad7 55fa b7ff 211e f7ca 050c ff29 c1f4
00000040: 080e 350c f6f4 121c 0b29 0526 46e3 1e19
00000050: f130 1e15 bf05 f731 fa0a aee5 141c 603f
00000060: 0926 caf2 f7d3 5eb7 bee2 c8d7 f9d8 f3d1
00000070: ddfe e9ee f6b0 69db fd15 fd42 cb0b d011
00000080: da15 0d0b e83a c64d 1e10 fed0 35cd f51e
00000090: a707 288f de2e 3d37 2018 b310 c1fa eeea
000000a0: 1619 6bf9 c681 04fa 1c46 e920 c8e8 6edd
000000b0: 34ef 38c3 e6d3 ec0d e6d9 1f00 4ad8 e238
000000c0: 05f8 1cf8 4229 c626 ca2f 19e2 22fa 181b
000000d0: 1eee 81f9 efd4 ed16 03f6 d00d deed e941
000000e0: f4da 0710 d61e e5ed 4610 092b 043c 0dfb
000000f0: b2fd e814 eb30 11ca 2719 2721 e404 f138
25 34 13 11 -28 -65 -17 11
-22 -66 17 -14 56 -70 55 36
-96 -14 30 0 90 17 -71 17
-7 77 127 65 6 72 52 -25
4 4 8 -30 35 17 -19 -4
107 5 32 -32 -9 -15 0 -54
10 -41 85 -6 -73 -1 33 30
-9 -54 5 12 -1 41 -63 -12
8 14 53 12 -10 -12 18 28
11 41 5 38 70 -29 30 25
-15 48 30 21 -65 5 -9 49
-6 10 -82 -27 20 28 96 63
9 38 -54 -14 -9 -45 94 -73
-66 -30 -56 -41 -7 -40 -13 -47
-35 -2 -23 -18 -10 -80 105 -37
-3 21 -3 66 -53 11 -48 17
-38 21 13 11 -24 58 -58 77
30 16 -2 -48 53 -51 -11 30
-89 7 40 -113 -34 46 61 55
32 24 -77 16 -63 -6 -18 -22
22 25 107 -7 -58 -127 4 -6
28 70 -23 32 -56 -24 110 -35
52 -17 56 -61 -26 -45 -20 13
-26 -39 31 0 74 -40 -30 56
5 -8 28 -8 66 41 -58 38
-54 47 25 -30 34 -6 24 27
30 -18 -127 -7 -17 -44 -19 22
3 -10 -48 13 -34 -19 -23 65
-12 -38 7 16 -42 30 -27 -19
70 16 9 43 4 60 13 -5
-78 -3 -24 20 -21 48 17 -54
39 25 39 33 -28 4 -15 56

model_1/block_4_depthwise_BN/FusedBatchNormV3;model_1/block_4_depthwise/depthwise;model_1/block_6_expand/Conv2D i1 [1, 3, 3, 96]
00000000: dcfc 03df 65f5 27ff fdfb f4d8 dd0e f6ef
00000010: ed03 02f5 fc11 112d fc00 e8fc 15fd 1606
00000020: fc04 00eb 0bbb cbfa 03fa 1df5 e820 b6eb
00000030: e30e ff29 b5fc 26f9 f6f2 04e6 f8f3 edeb
00000040: f0ee d4de ec1d 00fe 0c05 fe03 d1f7 7fee
00000050: 8b08 98e8 e7f2 0f0d dff7 05de 021b f803
00000060: fb1c 2ba8 dbf3 7fd7 01f9 db05 c506 aa5b
00000070: f84d 7cec 007f 497f 1b09 364b 7f21 7fdd
00000080: 82f5 bde5 e590 7fb0 e281 eeda 41d7 d0f5
00000090: 3407 247f 9c24 aff1 abfa f81d f481 83ad
000000a0: d300 fa8f fa18 af77 81ee 06ea 84ac f991
000000b0: 8106 16c0 6f4c c022 8103 1ff3 0b7f d7a4
000000c0: e004 f6fa 36fa 2ee5 ed0a f0fd f501 fce7
000000d0: f401 05f3 f605 042a fb1e 00e6 0609 0f09
000000e0: f902 ee45 ffda d804 ff0e 0b0d e7e3 c5e3
000000f0: f6fb fd1d 00fc 06ed 48ee 08e8 faf0 c0f5
-36 -4 3 -33 101 -11 39 -1
-3 -5 -12 -40 -35 14 -10 -17
-19 3 2 -11 -4 17 17 45
-4 0 -24 -4 21 -3 22 6
-4 4 0 -21 11 -69 -53 -6
3 -6 29 -11 -24 32 -74 -21
-29 14 -1 41 -75 -4 38 -7
-10 -14 4 -26 -8 -13 -19 -21
-16 -18 -44 -34 -20 29 0 -2
12 5 -2 3 -47 -9 127 -18
-117 8 -104 -24 -25 -14 15 13
-33 -9 5 -34 2 27 -8 3
-5 28 43 -88 -37 -13 127 -41
1 -7 -37 5 -59 6 -86 91
-8 77 124 -20 0 127 73 127
27 9 54 75 127 33 127 -35
-126 -11 -67 -27 -27 -112 127 -80
-30 -127 -18 -38 65 -41 -48 -11
52 7 36 127 -100 36 -81 -15
-85 -6 -8 29 -12 -127 -125 -83
-45 0 -6 -113 -6 24 -81 119
-127 -18 6 -22 -124 -84 -7 -111
-127 6 22 -64 111 76 -64 34
-127 3 31 -13 11 127 -41 -92
-32 4 -10 -6 54 -6 46 -27
-19 10 -16 -3 -11 1 -4 -25
-12 1 5 -13 -10 5 4 42
-5 30 0 -26 6 9 15 9
-7 2 -18 69 -1 -38 -40 4
-1 14 11 13 -25 -29 -59 -29
-10 -5 -3 29 0 -4 6 -19
72 -18 8 -24 -6 -16 -64 -11

model_1/block_4_expand/Conv2D i1 [96, 1, 1, 16]
00000000: 16fe ff4d 81e4 6a4d 2c61 e53c 0b0d 1c5d
00000010: f525 9d10 7f70 020a e108 b714 cc6b cad9
00000020: db40 4c04 3953 052b 25f2 2ff0 3381 fa0d
00000030: 7fe2 1314 1f1d f913 1e1e cfea e02f e43c
00000040: a5da 1024 81e5 aad3 ec23 e8c3 eb15 e379
00000050: a307 280b 7f14 fd08 da28 dc18 ba35 aed5
00000060: 8113 df1f fbc2 420d 0ae6 ca28 08fd d308
00000070: fd55 2ea8 4846 7f04 2d01 fc2f 5c14 f60d
00000080: e6ed bd43 d452 dbb4 14d5 4916 7f35 a010
00000090: ed81 e464 d2b6 f34a 3536 114d ae1a f8de
000000a0: ddc4 aa2c ac7f 31b8 ffda 29ee 3057 c043
000000b0: ddad d400 e84b 2703 0ffc 41b2 1169 9e7f
000000c0: e781 937d 8283 1f59 5844 e975 0baa d0fd
000000d0: c3ed dbfb ef04 2214 ec7f f8e9 2b25 0bf7
000000e0: 8fde dcca f24c df89 7fcb 3aee 62bc aca4
000000f0: 0781 5dcc c2da 0239 12cc ace2 4fd5 ebcf
22 -2 -1 77 -127 -28 106 77
44 97 -27 60 11 13 28 93
-11 37 -99 16 127 112 2 10
-31 8 -73 20 -52 107 -54 -39
-37 64 76 4 57 83 5 43
37 -14 47 -16 51 -127 -6 13
127 -30 19 20 31 29 -7 19
30 30 -49 -22 -32 47 -28 60
-91 -38 16 36 -127 -27 -86 -45
-20 35 -24 -61 -21 21 -29 121
-93 7 40 11 127 20 -3 8
-38 40 -36 24 -70 53 -82 -43
-127 19 -33 31 -5 -62 66 13
10 -26 -54 40 8 -3 -45 8
-3 85 46 -88 72 70 127 4
45 1 -4 47 92 20 -10 13
-26 -19 -67 67 -44 82 -37 -76
20 -43 73 22 127 53 -96 16
-19 -127 -28 100 -46 -74 -13 74
53 54 17 77 -82 26 -8 -34
-35 -60 -86 44 -84 127 49 -72
-1 -38 41 -18 48 87 -64 67
-35 -83 -44 0 -24 75 39 3
15 -4 65 -78 17 105 -98 127
-25 -127 -109 125 -126 -125 31 89
88 68 -23 117 11 -86 -48 -3
-61 -19 -37 -5 -17 4 34 20
-20 127 -8 -23 43 37 11 -9
-113 -34 -36 -54 -14 76 -33 -119
127 -53 58 -18 98 -68 -84 -92
7 -127 93 -52 -62 -38 2 57
18 -52 -84 -30 79 -43 -21 -49

model_1/block_3_project/Conv2D i1 [16, 1, 1, 48]
00000000: 1523 0bdb 3847 d736 ed74 0830 e022 ee29
00000010: 2552 2ebe c04d f236 3b2f 2634 cccd ff5a
00000020: e80b bb2e 3081 e312 0adf 39f3 f9cb c2ec
00000030: d203 afd1 085b c612 f0db d620 3ef5 e4e5
00000040: e3de ff12 c129 9dd7 c9d4 2f43 ede4 2dd7
00000050: 09ca df31 0cc8 7fd9 e61c d1f7 2135 250e
00000060: 0402 3edb f0af 1219 6648 bc0c 69cc 7f53
00000070: bbea e021 4bb9 e1a1 0ee0 1eba 2b28 ce0d
00000080: 25e8 3b2d c00d fde9 2321 42f2 0ea9 54cf
00000090: 2cfc eae1 216e 11eb 2dd0 16e5 ca04 0e2c
000000a0: d2bd 2686 f504 dded d761 7f3c efda 1729
000000b0: 3fe1 6125 d7c7 0022 1d0e ef02 1513 f4ec
000000c0: 62f9 05d1 564d 330d 46f6 9420 2bee 1bf6
000000d0: a388 e29f eb1e d6db b67f a46b c1c5 0e51
000000e0: 2dd0 09e7 0308 e619 dc01 fa3a d665 dfd9
000000f0: 02f8 c707 f438 14e2 4239 285a 35ec 20fd
21 35 11 -37 56 71 -41 54
-19 116 8 48 -32 34 -18 41
37 82 46 -66 -64 77 -14 54
59 47 38 52 -52 -51 -1 90
-24 11 -69 46 48 -127 -29 18
10 -33 57 -13 -7 -53 -62 -20
-46 3 -81 -47 8 91 -58 18
-16 -37 -42 32 62 -11 -28 -27
-29 -34 -1 18 -63 41 -99 -41
-55 -44 47 67 -19 -28 45 -41
9 -54 -33 49 12 -56 127 -39
-26 28 -47 -9 33 53 37 14
4 2 62 -37 -16 -81 18 25
102 72 -68 12 105 -52 127 83
-69 -22 -32 33 75 -71 -31 -95
14 -32 30 -70 43 40 -50 13
37 -24 59 45 -64 13 -3 -23
35 33 66 -14 14 -87 84 -49
44 -4 -22 -31 33 110 17 -21
45 -48 22 -27 -54 4 14 44
-46 -67 38 -122 -11 4 -35 -19
-41 97 127 60 -17 -38 23 41
63 -31 97 37 -41 -57 0 34
29 14 -17 2 21 19 -12 -20
98 -7 5 -47 86 77 51 13
70 -10 -108 32 43 -18 27 -10
-93 -120 -30 -97 -21 30 -42 -37
-74 127 -92 107 -63 -59 14 81
45 -48 9 -25 3 8 -26 25
-36 1 -6 58 -42 101 -33 -39
2 -8 -57 7 -12 56 20 -30
66 57 40 90 53 -20 32 -3

model_1/block_3_depthwise_BN/FusedBatchNormV3;model_1/block_3_depthwise/depthwise i1 [1, 3, 3, 48]
00000000: 9f5b 813c b74b bd76 a1b2 46ca 3db7 cdc7
00000010: 484c 598c 4c86 569f 9ac5 497f 94d3 a040
00000020: 40a3 3a8d b889 4fcd f5aa 6a8f 6d4a b8ce
00000030: 8173 b246 b96a c86b 8392 60af 5b92 c5b8
00000040: 6362 7f81 6881 6b81 af9c 5679 1fc5 933f
00000050: 5a81 618e b787 5fb9 955f 7fa9 db65 94c6
00000060: c846 0010 fc3d dd20 cade 32ef 23cd dafa
00000070: 2d2c 3bd2 27cf 1bde cbe1 1018 60e9 d113
00000080: 19b5 28e3 e8cf 31c6 8dd3 1dbc b52e e3da
00000090: a26a ca7f b55c 817f 959d 57a7 5889 9b9b
000000a0: 5f5d d496 5a87 6ab4 88a0 6676 81b5 945f
000000b0: 5a20 5985 a281 6a9c 9b88 6c81 7f49 89bf
000000c0: 817f 927f 817f 8562 8181 7f81 7f81 8181
000000d0: 7f7f c492 7f8d 7f9a 8181 7f6b 0981 817f
000000e0: 7f31 7f81 818d 7f81 817f 7393 bf7f 8181
000000f0: c747 a82b da22 c203 dbd9 3bd2 34c7 c5fb
-97 91 -127 60 -73 75 -67 118
-95 -78 70 -54 61 -73 -51 -57
72 76 89 -116 76 -122 86 -97
-102 -59 73 127 -108 -45 -96 64
64 -93 58 -115 -72 -119 79 -51
-11 -86 106 -113 109 74 -72 -50
-127 115 -78 70 -71 106 -56 107
-125 -110 96 -81 91 -110 -59 -72
99 98 127 -127 104 -127 107 -127
-81 -100 86 121 31 -59 -109 63
90 -127 97 -114 -73 -121 95 -71
-107 95 127 -87 -37 101 -108 -58
-56 70 0 16 -4 61 -35 32
-54 -34 50 -17 35 -51 -38 -6
45 44 59 -46 39 -49 27 -34
-53 -31 16 24 96 -23 -47 19
25 -75 40 -29 -24 -49 49 -58
-115 -45 29 -68 -75 46 -29 -38
-94 106 -54 127 -75 92 -127 127
-107 -99 87 -89 88 -119 -101 -101
95 93 -44 -106 90 -121 106 -76
-120 -96 102 118 -127 -75 -108 95
90 32 89 -123 -94 -127 106 -100
-101 -120 108 -127 127 73 -119 -65
-127 127 -110 127 -127 127 -123 98
-127 -127 127 -127 127 -127 -127 -127
127 127 -60 -110 127 -115 127 -102
-127 -127 127 107 9 -127 -127 127
127 49 127 -127 -127 -115 127 -127
-127 127 115 -109 -65 127 -127 -127
-57 71 -88 43 -38 34 -62 3
-37 -39 59 -46 52 -57 -59 -5

model_1/block_3_expand/Conv2D i1 [48, 1, 1, 8]
00000000: 4422 7fd9 3e65 b4cf 01b6 8107 2e1a 14fe
00000010: 81fc c6de 3a1f afda 2943 6db8 ec81 03e4
00000020: 8115 c3ea 330c d8c1 971f d0ed 0822 a981
00000030: d287 812b 7217 fe3a c681 9bb0 bcba 154c
00000040: 5a20 f5f8 5fab 8109 d930 d25b c9dc 7fe2
00000050: e77b 1c3e 7fed fa37 b0da e9f8 a16a 7ff9
00000060: 4524 8121 f1dd bff2 44e6 b011 0581 e0e6
00000070: 0ab4 4203 7f8f c910 d3d8 fd7f 3c55 ae21
00000080: 7619 d908 538c 81e4 397f 3747 2c3d 17ae
00000090: 1cff 0efc 7ff2 18f4 097f 2105 8a0f 19da
000000a0: cf12 4c81 1a25 f270 dc4a 3081 212a f271
000000b0: c1bc a50f 8176 69e4 5f23 810b 06d0 bfe9
000000c0: d129 080a f343 8164 98cb 810b c3c1 416a
000000d0: 33fc dce1 73f1 7fdf 7fbc 2053 081d ea66
000000e0: 313d 3cfe 7fcf 34f1 f1f2 e6d6 c313 7fdf
000000f0: 2c81 c9ba 92fa 0acb 0c1f fdee 8103 e1f7
68 34 127 -39 62 101 -76 -49
1 -74 -127 7 46 26 20 -2
-127 -4 -58 -34 58 31 -81 -38
41 67 109 -72 -20 -127 3 -28
-127 21 -61 -22 51 12 -40 -63
-105 31 -48 -19 8 34 -87 -127
-46 -121 -127 43 114 23 -2 58
-58 -127 -101 -80 -68 -70 21 76
90 32 -11 -8 95 -85 -127 9
-39 48 -46 91 -55 -36 127 -30
-25 123 28 62 127 -19 -6 55
-80 -38 -23 -8 -95 106 127 -7
69 36 -127 33 -15 -35 -65 -14
68 -26 -80 17 5 -127 -32 -26
10 -76 66 3 127 -113 -55 16
-45 -40 -3 127 60 85 -82 33
118 25 -39 8 83 -116 -127 -28
57 127 55 71 44 61 23 -82
28 -1 14 -4 127 -14 24 -12
9 127 33 5 -118 15 25 -38
-49 18 76 -127 26 37 -14 112
-36 74 48 -127 33 42 -14 113
-63 -68 -91 15 -127 118 105 -28
95 35 -127 11 6 -48 -65 -23
-47 41 8 10 -13 67 -127 100
-104 -53 -127 11 -61 -63 65 106
51 -4 -36 -31 115 -15 127 -33
127 -68 32 83 8 29 -22 102
49 61 60 -2 127 -49 52 -15
-15 -14 -26 -42 -61 19 127 -33
44 -127 -55 -70 -110 -6 10 -53
12 31 -3 -18 -127 3 -31 -9

model_1/block_2_project/Conv2D i1 [8, 1, 1, 48]
00000000: dbd5 f0c2 00f7 4e49 a2b1 e408 d7fd cb1c
00000010: b40b 0d7f 37e6 095a 4743 12fe acce bad1
00000020: d25e 22d7 18e4 5001 1a07 019c 27dc deba
00000030: f136 f0e7 ba36 eed6 de48 f211 3723 d3fa
00000040: f08f 48d6 7f0c c011 3bfd ad3c 23f6 4220
00000050: dff2 05f8 0367 f0ea 4428 fb0c 690f e536
00000060: e7e2 6f05 52d1 f81c e001 fb2b 06cf d781
00000070: ce9f e513 991c dbdb d10c 03d4 dc0c e1f5
00000080: 00ff 1bf8 19e0 d50a 24e6 22d8 d8d8 c9cd
00000090: 3613 440d 10e2 1a49 c9e9 30e5 c237 e92f
000000a0: 4a22 e227 9ebe 7ffb 0903 c1db ca42 71bf
000000b0: 0696 ee30 f6b6 ef4d b7c3 3ef9 a5b6 36fd
000000c0: 16f2 4cdd 06fa 0001 c8f4 e909 32b5 28a1
000000d0: 2d31 fadc 1025 140a 0505 3ff3 1d1a 81ed
000000e0: e9ee 0116 2ffc 1e04 d4f9 b91e eba0 0619
000000f0: 1cd1 4021 1b13 1707 b0f9 d41c 230a 09d0
-37 -43 -16 -62 0 -9 78 73
-94 -79 -28 8 -41 -3 -53 28
-76 11 13 127 55 -26 9 90
71 67 18 -2 -84 -50 -70 -47
-46 94 34 -41 24 -28 80 1
26 7 1 -100 39 -36 -34 -70
-15 54 -16 -25 -70 54 -18 -42
-34 72 -14 17 55 35 -45 -6
-16 -113 72 -42 127 12 -64 17
59 -3 -83 60 35 -10 66 32
-33 -14 5 -8 3 103 -16 -22
68 40 -5 12 105 15 -27 54
-25 -30 111 5 82 -47 -8 28
-32 1 -5 43 6 -49 -41 -127
-50 -97 -27 19 -103 28 -37 -37
-47 12 3 -44 -36 12 -31 -11
0 -1 27 -8 25 -32 -43 10
36 -26 34 -40 -40 -40 -55 -51
54 19 68 13 16 -30 26 73
-55 -23 48 -27 -62 55 -23 47
74 34 -30 39 -98 -66 127 -5
9 3 -63 -37 -54 66 113 -65
6 -106 -18 48 -10 -74 -17 77
-73 -61 62 -7 -91 -74 54 -3
22 -14 76 -35 6 -6 0 1
-56 -12 -23 9 50 -75 40 -95
45 49 -6 -36 16 37 20 10
5 5 63 -13 29 26 -127 -19
-23 -18 1 22 47 -4 30 4
-44 -7 -71 30 -21 -96 6 25
28 -47 64 33 27 19 23 7
-80 -7 -44 28 35 10 9 -48

model_1/block_2_depthwise_BN/FusedBatchNormV3;model_1/block_2_depthwise/depthwise;model_1/block_3_depthwise/depthwise i1 [1, 3, 3, 48]
00000000: 0dd2 0a06 eca4 d343 dbff fc0b 29fb ee07
00000010: 6d04 13f9 06ee c113 f8f5 07dc c54e fb9e
00000020: 3300 c9dd f8df 06eb ee26 0111 ef3a 7fd8
00000030: 819e e97f bb5a 9f7f 220e 17fd 3016 f5db
00000040: e13c 1d05 027f 0f7f 75e0 dd23 408c fbbc
00000050: 40fa d69d 1506 cfc7 8103 a087 2234 3a67
00000060: 01f7 0a08 e228 282c 0eda ff03 ea02 f707
00000070: c730 bbe1 f6e2 7f0f c2fe 12fb 0b28 0f03
00000080: f7f4 d644 080b 1249 1aed 14d9 f223 e5e1
00000090: f5e9 e6fe 1f99 7fab f50f 142b 7f18 00e3
000000a0: ecd7 152b 47c2 230d bc7f bde6 7fa6 3281
000000b0: d20b a61f 0bc1 d509 777f 0481 bdc1 f069
000000c0: 7181 7f03 7f5c bcca 257f 7f81 a27f 7f7f
000000d0: 7f7f 7d7f 7f7b ff06 7f97 817f 287f 7ffa
000000e0: 817f 7f7f 817f 8181 2529 81dd 7f81 ef59
000000f0: 2818 d7fa c97f 8e7f 73b1 0e45 d912 07c5
13 -46 10 6 -20 -92 -45 67
-37 -1 -4 11 41 -5 -18 7
109 4 19 -7 6 -18 -63 19
-8 -11 7 -36 -59 78 -5 -98
51 0 -55 -35 -8 -33 6 -21
-18 38 1 17 -17 58 127 -40
-127 -98 -23 127 -69 90 -97 127
34 14 23 -3 48 22 -11 -37
-31 60 29 5 2 127 15 127
117 -32 -35 35 64 -116 -5 -68
64 -6 -42 -99 21 6 -49 -57
-127 3 -96 -121 34 52 58 103
1 -9 10 8 -30 40 40 44
14 -38 -1 3 -22 2 -9 7
-57 48 -69 -31 -10 -30 127 15
-62 -2 18 -5 11 40 15 3
-9 -12 -42 68 8 11 18 73
26 -19 20 -39 -14 35 -27 -31
-11 -23 -26 -2 31 -103 127 -85
-11 15 20 43 127 24 0 -29
-20 -41 21 43 71 -62 35 13
-68 127 -67 -26 127 -90 50 -127
-46 11 -90 31 11 -63 -43 9
119 127 4 -127 -67 -63 -16 105
113 -127 127 3 127 92 -68 -54
37 127 127 -127 -94 127 127 127
127 127 125 127 127 123 -1 6
127 -105 -127 127 40 127 127 -6
-127 127 127 127 -127 127 -127 -127
37 41 -127 -35 127 -127 -17 89
40 24 -41 -6 -55 127 -114 127
115 -79 14 69 -39 18 7 -59

model_1/block_2_expand/Conv2D i1 [48, 1, 1, 8]
00000000: 4f7f baa6 0d57 114d 30b7 2f81 cd42 aedd
00000010: da7f 772d 6900 2f0f 6d31 ae4a 029e 81e1
00000020: ca2e 11c1 d675 7f3d 1d42 81b7 284f 26dc
00000030: 037f 4235 350f 0cb5 7fef e92f 1100 7014
00000040: 3a7f 385e 6a56 65a5 3070 81ae 1559 0744
00000050: b6da 1bcf f9dd c67f 0b92 81f2 13f4 25f9
00000060: ec8c 81e3 8e20 c92b fb0c a066 81e4 fdf2
00000070: b9d2 81fb 2cfc ebc7 10a8 8116 a2e7 daf1
00000080: 7fb5 ed42 9914 226d e26d 7fe1 caf8 ebe6
00000090: 0981 3247 ffc0 3aaa 7fda cb26 a30c 2968
000000a0: de81 5249 f4a7 ffb7 01d7 f1e2 7ffb 2c11
000000b0: 811c bd27 282b a59f 9ccc 41fe 8d7d 7fc6
000000c0: e53b fbd8 df7f 7601 ba92 81c0 b6f6 e0d2
000000d0: f03d e77f 922d cdf7 1181 224a 0dcc 078a
000000e0: 057f 3437 7ded 1bac 6332 e603 5881 8844
000000f0: 14f6 1c81 0eed 13e7 27d6 0a39 f11b 127f
79 127 -70 -90 13 87 17 77
48 -73 47 -127 -51 66 -82 -35
-38 127 119 45 105 0 47 15
109 49 -82 74 2 -98 -127 -31
-54 46 17 -63 -42 117 127 61
29 66 -127 -73 40 79 38 -36
3 127 66 53 53 15 12 -75
127 -17 -23 47 17 0 112 20
58 127 56 94 106 86 101 -91
48 112 -127 -82 21 89 7 68
-74 -38 27 -49 -7 -35 -58 127
11 -110 -127 -14 19 -12 37 -7
-20 -116 -127 -29 -114 32 -55 43
-5 12 -96 102 -127 -28 -3 -14
-71 -46 -127 -5 44 -4 -21 -57
16 -88 -127 22 -94 -25 -38 -15
127 -75 -19 66 -103 20 34 109
-30 109 127 -31 -54 -8 -21 -26
9 -127 50 71 -1 -64 58 -86
127 -38 -53 38 -93 12 41 104
-34 -127 82 73 -12 -89 -1 -73
1 -41 -15 -30 127 -5 44 17
-127 28 -67 39 40 43 -91 -97
-100 -52 65 -2 -115 125 127 -58
-27 59 -5 -40 -33 127 118 1
-70 -110 -127 -64 -74 -10 -32 -46
-16 61 -25 127 -110 45 -51 -9
17 -127 34 74 13 -52 7 -118
5 127 52 55 125 -19 27 -84
99 50 -26 3 88 -127 -120 68
20 -10 28 -127 14 -19 19 -25
39 -42 10 57 -15 27 18 127

model_1/block_1_project/Conv2D i1 [8, 1, 1, 48]
00000000: d2fe 210f def3 0c08 d3f8 c1c8 e8c2 f8e2
00000010: 2ed6 2729 ee20 d60f 03dc 36f2 fdf1 100a
00000020: 5625 2281 13ff f1dd 04f1 2e31 2402 1a05
00000030: fa2b 3de8 f32e cfe6 ff14 eb9f 0e5f ed39
00000040: ed15 e6cc 0ab1 e816 b8f2 fb8e e0ec 21cd
00000050: 2c4e d205 7fdd 0236 e22c ace7 77e9 dbef
00000060: faed c510 fb2e 1f05 fa28 ff1a 3ca9 10c8
00000070: 24a4 1a23 e635 f619 f13c e3bb 1104 0db8
00000080: cdac 1ee3 681a f9c4 021f 4d21 7f0f 1520
00000090: fc19 be2b 0cde be9d 0ded dffe 071c 2348
000000a0: fa0c dd15 05a3 19c9 b5f8 7ff2 d403 c50f
000000b0: 01b2 0af7 eeda ef65 d8df 0314 2902 d82c
000000c0: e6d1 f808 20e0 f6f6 1ce1 36b3 041d 070a
000000d0: eee9 0df2 faca 07eb 13f7 2731 2015 ee19
000000e0: f4fe 00fe ba55 24e5 1deb ebe8 b20e 7f0a
000000f0: 30f0 0010 17d9 2481 15e0 fa76 b045 17bb
-46 -2 33 15 -34 -13 12 8
-45 -8 -63 -56 -24 -62 -8 -30
46 -42 39 41 -18 32 -42 15
3 -36 54 -14 -3 -15 16 10
86 37 34 -127 19 -1 -15 -35
4 -15 46 49 36 2 26 5
-6 43 61 -24 -13 46 -49 -26
-1 20 -21 -97 14 95 -19 57
-19 21 -26 -52 10 -79 -24 22
-72 -14 -5 -114 -32 -20 33 -51
44 78 -46 5 127 -35 2 54
-30 44 -84 -25 119 -23 -37 -17
-6 -19 -59 16 -5 46 31 5
-6 40 -1 26 60 -87 16 -56
36 -92 26 35 -26 53 -10 25
-15 60 -29 -69 17 4 13 -72
-51 -84 30 -29 104 26 -7 -60
2 31 77 33 127 15 21 32
-4 25 -66 43 12 -34 -66 -99
13 -19 -33 -2 7 28 35 72
-6 12 -35 21 5 -93 25 -55
-75 -8 127 -14 -44 3 -59 15
1 -78 10 -9 -18 -38 -17 101
-40 -33 3 20 41 2 -40 44
-26 -47 -8 8 32 -32 -10 -10
28 -31 54 -77 4 29 7 10
-18 -23 13 -14 -6 -54 7 -21
19 -9 39 49 32 21 -18 25
-12 -2 0 -2 -70 85 36 -27
29 -21 -21 -24 -78 14 127 10
48 -16 0 16 23 -39 36 -127
21 -32 -6 118 -80 69 23 -69

model_1/block_1_depthwise_BN/FusedBatchNormV3;model_1/block_1_depthwise/depthwise;model_1/block_3_depthwise/depthwise i1 [1, 3, 3, 48]
00000000: e69a eff0 7fb6 4fc3 aeb5 f3cb 6827 5688
00000010: 3de3 05d5 c455 fc0b eb43 43db 45b8 04d9
00000020: 81aa 2d47 1761 71bc 84f9 204a 3281 5f5a
00000030: c781 bb38 a964 47bb bc23 4195 7f53 7fba
00000040: b4ac 22cc b95d b566 ab5a 5881 50d2 0a81
00000050: c5a8 4c7f 6c73 7fae 81b0 3f5b 5167 5e4f
00000060: fdc3 cd5d cfd6 12f4 5a15 30b7 1b2b da02
00000070: b4ee 23e3 eafe a5fe c331 0daa 2338 6ec4
00000080: 0307 f532 4d48 2fee e24d 4a2e 251d 1092
00000090: 8aa2 eab0 b7a5 668d 8181 5ab1 562f 85b6
000000a0: 7f81 cab2 ae7f dd0b e952 73d1 95b5 fed2
000000b0: 9f81 8140 2e62 03ae 31f9 497f 5466 7f87
000000c0: 818a 81a2 e37f 7f81 5638 7f81 6e7f 5c81
000000d0: 36a6 8181 8172 817f 817f 7f8a 817f 0082
000000e0: 8e94 2e7c 7f7f f181 5497 7f73 7ffe 7c7f
000000f0: cbc3 917f 42c2 29e2 4319 11c4 1640 58ce
-26 -102 -17 -16 127 -74 79 -61
-82 -75 -13 -53 104 39 86 -120
61 -29 5 -43 -60 85 -4 11
-21 67 67 -37 69 -72 4 -39
-127 -86 45 71 23 97 113 -68
-124 -7 32 74 50 -127 95 90
-57 -127 -69 56 -87 100 71 -69
-68 35 65 -107 127 83 127 -70
-76 -84 34 -52 -71 93 -75 102
-85 90 88 -127 80 -46 10 -127
-59 -88 76 127 108 115 127 -82
-127 -80 63 91 81 103 94 79
-3 -61 -51 93 -49 -42 18 -12
90 21 48 -73 27 43 -38 2
-76 -18 35 -29 -22 -2 -91 -2
-61 49 13 -86 35 56 110 -60
3 7 -11 50 77 72 47 -18
-30 77 74 46 37 29 16 -110
-118 -94 -22 -80 -73 -91 102 -115
-127 -127 90 -79 86 47 -123 -74
127 -127 -54 -78 -82 127 -35 11
-23 82 115 -47 -107 -75 -2 -46
-97 -127 -127 64 46 98 3 -82
49 -7 73 127 84 102 127 -121
-127 -118 -127 -94 -29 127 127 -127
86 56 127 -127 110 127 92 -127
54 -90 -127 -127 -127 114 -127 127
-127 127 127 -118 -127 127 0 -126
-114 -108 46 124 127 127 -15 -127
84 -105 127 115 127 -2 124 127
-53 -61 -111 127 66 -62 41 -30
67 25 17 -60 22 64 88 -50

model_1/block_1_expand/Conv2D i1 [48, 1, 1, 8]
00000000: d720 fdf0 b2de 8124 56b7 cbc9 7fa8 5a19
00000010: 9679 c781 35f2 dc32 3718 680a 556c 7ff1
00000020: c681 3f14 cf96 03e4 7fe1 4444 b2fb 01e7
00000030: 1825 7fe4 2ddb d320 1c06 81e0 d55f 63b2
00000040: 027f e105 4263 2f2c f47f ce48 1f9f 1b68
00000050: 0181 f8df b282 c2af 81b1 6931 fcc2 6042
00000060: e428 8155 1fce b266 5e81 5b52 0c28 29c3
00000070: dd5a e081 df94 e6c2 2d6c 23ef 22c2 6081
00000080: 9b81 bc5a d018 f84b ec8c 8162 b94f cc50
00000090: 9aaa c961 f554 027f 3981 5b83 0ec3 1fe7
000000a0: 0543 2314 227f 4cf6 1d72 2fde 2abd 5d81
000000b0: 1e17 790a ff7f 25ce 92b9 24b0 6170 bb81
000000c0: a2a4 28ac 6765 d681 7f07 c7f6 0b21 c4f6
000000d0: 81e3 8be7 d4e1 12fe 5623 06c5 81e3 5955
000000e0: 819b 072a b192 0ffc 6863 1c81 2410 bea9
000000f0: a5b5 2bbb 4f6a c581 3631 fc7f 09bb 070b
-41 32 -3 -16 -78 -34 -127 36
86 -73 -53 -55 127 -88 90 25
-106 121 -57 -127 53 -14 -36 50
55 24 104 10 85 108 127 -15
-58 -127 63 20 -49 -106 3 -28
127 -31 68 68 -78 -5 1 -25
24 37 127 -28 45 -37 -45 32
28 6 -127 -32 -43 95 99 -78
2 127 -31 5 66 99 47 44
-12 127 -50 72 31 -97 27 104
1 -127 -8 -33 -78 -126 -62 -81
-127 -79 105 49 -4 -62 96 66
-28 40 -127 85 31 -50 -78 102
94 -127 91 82 12 40 41 -61
-35 90 -32 -127 -33 -108 -26 -62
45 108 35 -17 34 -62 96 -127
-101 -127 -68 90 -48 24 -8 75
-20 -116 -127 98 -71 79 -52 80
-102 -86 -55 97 -11 84 2 127
57 -127 91 -125 14 -61 31 -25
5 67 35 20 34 127 76 -10
29 114 47 -34 42 -67 93 -127
30 23 121 10 -1 127 37 -50
-110 -71 36 -80 97 112 -69 -127
-94 -92 40 -84 103 101 -42 -127
127 7 -57 -10 11 33 -60 -10
-127 -29 -117 -25 -44 -31 18 -2
86 35 6 -59 -127 -29 89 85
-127 -101 7 42 -79 -110 15 -4
104 99 28 -127 36 16 -66 -87
-91 -75 43 -69 79 106 -59 -127
54 49 -4 127 9 -69 7 11

model_1/expanded_conv_project/Conv2D i1 [8, 1, 1, 16]
00000000: f5f4 ecbf e9df 11ef 2a07 e2fc 717f eb9a
00000010: 7fc5 d412 cf46 bad6 d851 dfcb f703 c5ee
00000020: daa2 2a29 2cc6 b2eb 1ca6 1a81 2ae9 b514
00000030: 2a09 0b10 f243 c5e8 7f2c 0813 03f1 0814
00000040: 9ad5 ea81 f823 3c87 23eb cad8 8b20 dee4
00000050: 5833 3feb 2fd0 8189 f1b6 3e2f ca32 40d4
00000060: 6724 81b9 1dbe 03ad da14 8d54 58ac 0448
00000070: 81fe 62e3 c104 fec1 cf3f 56e2 40e4 2219
-11 -12 -20 -65 -23 -33 17 -17
42 7 -30 -4 113 127 -21 -102
127 -59 -44 18 -49 70 -70 -42
-40 81 -33 -53 -9 3 -59 -18
-38 -94 42 41 44 -58 -78 -21
28 -90 26 -127 42 -23 -75 20
42 9 11 16 -14 67 -59 -24
127 44 8 19 3 -15 8 20
-102 -43 -22 -127 -8 35 60 -121
35 -21 -54 -40 -117 32 -34 -28
88 51 63 -21 47 -48 -127 -119
-15 -74 62 47 -54 50 64 -44
103 36 -127 -71 29 -66 3 -83
-38 20 -115 84 88 -84 4 72
-127 -2 98 -29 -63 4 -2 -63
-49 63 86 -30 64 -28 34 25

model_1/expanded_conv_depthwise_BN/FusedBatchNormV3;model_1/expanded_conv_depthwise/depthwise;model_1/block_5_project/Conv2D i1 [1, 3, 3, 16]
00000000: 01fd 0707 ed0b 1311 f7f5 02f7 fbfa 01ff
00000010: 09fd 0109 10ff 13e6 f709 fc54 f516 03fe
00000020: 00fc fd08 02f3 fd0a 0002 00f6 00fc fb00
00000030: 0af6 0804 7fe9 81eb 7f7f 00fa 6de9 ffee
00000040: 817f 7f01 aba6 f899 1196 7f7f 7f7f 7f7f
00000050: 14fa f802 f57f 0df5 fdf3 fcfa 0afd f2fa
00000060: 01fc 03f3 ed10 3e06 f8f8 03ff fc02 fbf5
00000070: 15f5 0081 09f1 f97f fd01 00f1 fac9 f7dd
00000080: 00fc 0001 00fc 01fd 0102 fe02 01fc f7f7
1 -3 7 7 -19 11 19 17
-9 -11 2 -9 -5 -6 1 -1
9 -3 1 9 16 -1 19 -26
-9 9 -4 84 -11 22 3 -2
0 -4 -3 8 2 -13 -3 10
0 2 0 -10 0 -4 -5 0
10 -10 8 4 127 -23 -127 -21
127 127 0 -6 109 -23 -1 -18
-127 127 127 1 -85 -90 -8 -103
17 -106 127 127 127 127 127 127
20 -6 -8 2 -11 127 13 -11
-3 -13 -4 -6 10 -3 -14 -6
1 -4 3 -13 -19 16 62 6
-8 -8 3 -1 -4 2 -5 -11
21 -11 0 -127 9 -15 -7 127
-3 1 0 -15 -6 -55 -9 -35
0 -4 0 1 0 -4 1 -3
1 2 -2 2 1 -4 -9 -9

model_1/Conv1/Conv2D i1 [16, 3, 3, 1]
00000000: aa93 e243 db10 207f 1369 a1f6 8168 180e
00000010: fff4 e9fd d024 5f7f f4a2 b179 7f3b 02ed
00000020: f39c 84d6 18cb 0517 8103 0fb1 f5c2 1afe
00000030: 8120 03ae 1c00 ef4f 7fcc 37f1 ddce aa20
00000040: 19eb 7f44 f31e 00e1 ece3 35cb a97f e6c3
00000050: 60e7 32f2 ec7f f1fa 5df7 1957 0cdb 81e3
00000060: 0c28 1207 ed0a 40a2 23ab 7fd2 d731 f681
00000070: 7206 b250 0652 1ef2 7f6e f640 6221 e2e4
00000080: 302b 6281 efba 51b1 e914 8186 10e5 aef2
-86 -109 -30 67 -37 16 32 127
19 105 -95 -10 -127 104 24 14
-1 -12 -23 -3 -48 36 95 127
-12 -94 -79 121 127 59 2 -19
-13 -100 -124 -42 24 -53 5 23
-127 3 15 -79 -11 -62 26 -2
-127 32 3 -82 28 0 -17 79
127 -52 55 -15 -35 -50 -86 32
25 -21 127 68 -13 30 0 -31
-20 -29 53 -53 -87 127 -26 -61
96 -25 50 -14 -20 127 -15 -6
93 -9 25 87 12 -37 -127 -29
12 40 18 7 -19 10 64 -94
35 -85 127 -46 -41 49 -10 -127
114 6 -78 80 6 82 30 -14
127 110 -10 64 98 33 -30 -28
48 43 98 -127 -17 -70 81 -79
-23 20 -127 -122 16 -27 -82 -14
