OPENMV代码程序（4.5.9-4.6.2）/垃圾分类/garbage.tflite (tflite, 56672 bytes, 21 tensors)

model_1/logits/Conv2D i1 [4, 1, 1, 32]
000000 45 d8 ba d2 7f db 02 d3 7d e3 62 5d c0 da 0f f3
       69 -40 -70 -46 127 -37 2 -45 125 -29 98 93 -64 -38 15 -13
000010 12 ca 97 13 ef 50 d1 5f 0f 07 fe 1a 71 d8 2b 02
       18 -54 -105 19 -17 80 -47 95 15 7 -2 26 113 -40 43 2
000020 3f 51 a5 ee cd 2b 7d 2b ce b5 a4 14 62 c3 6f 81
       63 81 -91 -18 -51 43 125 43 -50 -75 -92 20 98 -61 111 -127
000030 7e 94 0f c8 0a b4 a3 e2 f8 a5 45 c3 c4 8d e7 df
       126 -108 15 -56 10 -76 -93 -30 -8 -91 69 -61 -60 -115 -25 -33
000040 d7 75 15 55 cd f6 5d 2e a8 81 5e b4 a1 58 89 50
       -41 117 21 85 -51 -10 93 46 -88 -127 94 -76 -95 88 -119 80
000050 3a 53 67 b7 f0 0d e5 d3 1b cf 60 99 df 12 51 51
       58 83 103 -73 -16 13 -27 -45 27 -49 96 -103 -33 18 81 81
000060 4b b8 50 09 e4 72 2d f8 fb 97 27 66 4f f7 81 ec
       75 -72 80 9 -28 114 45 -8 -5 -105 39 102 79 -9 -127 -20
000070 70 a7 6d 01 89 04 f8 dc 5f fa a2 5c a4 71 26 32
       112 -89 109 1 -119 4 -8 -36 95 -6 -94 92 -92 113 38 50

model_1/head/Conv2D i1 [32, 1, 1, 96]
000000 d9 c4 5f 09 5c f0 a5 99 41 94 8f 00 3d 0c db 35
       -39 -60 95 9 92 -16 -91 -103 65 -108 -113 0 61 12 -37 53
000010 c4 de b3 ca b8 92 01 73 81 0b 52 c7 74 01 eb ab
       -60 -34 -77 -54 -72 -110 1 115 -127 11 82 -57 116 1 -21 -85
000020 5b be 9f 39 88 ad a6 20 50 a5 94 6b 37 90 73 ed
       91 -66 -97 57 -120 -83 -90 32 80 -91 -108 107 55 -112 115 -19
000030 16 c6 e1 69 b1 ca a0 74 1b 45 7c 89 b5 47 cd 2e
       22 -58 -31 105 -79 -54 -96 116 27 69 124 -119 -75 71 -51 46
000040 f5 13 49 64 35 5f 59 84 6b 9b 22 55 93 08 c2 14
       -11 19 73 100 53 95 89 -124 107 -101 34 85 -109 8 -62 20
000050 3a 1a 65 fc c2 d6 a4 6f 20 7c f3 86 11 3a 24 10
       58 26 101 -4 -62 -42 -92 111 32 124 -13 -122 17 58 36 16
000060 c9 20 a2 f9 de 56 24 05 54 9c 97 6a 3c e6 17 46
       -55 32 -94 -7 -34 86 36 5 84 -100 -105 106 60 -26 23 70
000070 68 d7 1a 7f cc f1 1d 19 28 15 d3 5d 02 0b 63 c4
       104 -41 26 127 -52 -15 29 25 40 21 -45 93 2 11 99 -60
000080 42 6c f5 1c 30 43 f3 bc c4 04 e5 9f e0 29 e6 c8
       66 108 -11 28 48 67 -13 -68 -60 4 -27 -97 -32 41 -26 -56
000090 e9 a3 76 41 fd 59 b2 cc 1b 64 42 55 ca 62 c0 a7
       -23 -93 118 65 -3 89 -78 -52 27 100 66 85 -54 98 -64 -89
0000a0 c9 27 43 22 6f 16 09 0a 8e 65 c6 1d 59 c7 d2 3f
       -55 39 67 34 111 22 9 10 -114 101 -58 29 89 -57 -46 63
0000b0 b0 5d c3 8c 1e 79 b8 c2 4c 55 4c 21 59 61 22 f9
       -80 93 -61 -116 30 121 -72 -62 76 85 76 33 89 97 34 -7
0000c0 24 1e b2 56 e2 c6 5b 61 91 54 d2 7d 66 ed 4d 81
       36 30 -78 86 -30 -58 91 97 -111 84 -46 125 102 -19 77 -127
0000d0 c6 e0 2a 40 a0 ec 6e 16 de 55 6d 0d be 5b 51 60
       -58 -32 42 64 -96 -20 110 22 -34 85 109 13 -66 91 81 96
0000e0 af e1 94 87 9e 5c 71 e3 81 b4 0e f5 9d 78 db b0
       -81 -31 -108 -121 -98 92 113 -29 -127 -76 14 -11 -99 120 -37 -80
0000f0 63 30 63 a6 d6 39 1a 17 bd 69 c2 fd ef 35 e0 3e
       99 48 99 -90 -42 57 26 23 -67 105 -62 -3 -17 53 -32 62

model_1/block_6_expand/Conv2D i1 [96, 1, 1, 16]
000000 ea 53 ff 81 d0 e0 e9 be ea 17 fd 46 0b c9 00 33
       -22 83 -1 -127 -48 -32 -23 -66 -22 23 -3 70 11 -55 0 51
000010 e1 18 c3 01 de e2 15 ac 45 34 bf 17 08 08 2a 81
       -31 24 -61 1 -34 -30 21 -84 69 52 -65 23 8 8 42 -127
000020 06 07 db 1f 36 0c be c1 7f dc fd 04 f5 6a ad 20
       6 7 -37 31 54 12 -66 -63 127 -36 -3 4 -11 106 -83 32
000030 2d b2 05 8a 02 e6 00 f5 73 fc 53 30 f0 2f 18 7f
       45 -78 5 -118 2 -26 0 -11 115 -4 83 48 -16 47 24 127
000040 b1 32 12 29 06 f0 f9 2a 06 05 17 ec 81 f5 ed 17
       -79 50 18 41 6 -16 -7 42 6 5 23 -20 -127 -11 -19 23
000050 fe 45 6f fd 18 52 b7 4d c2 48 e9 da 24 ca 81 18
       -2 69 111 -3 24 82 -73 77 -62 72 -23 -38 36 -54 -127 24
000060 1f c4 7f 84 21 06 ce 5a b0 95 33 e2 fb 5f e4 4b
       31 -60 127 -124 33 6 -50 90 -80 -107 51 -30 -5 95 -28 75
000070 27 76 e9 c6 69 0a 08 d6 7f 5d e4 10 22 ee 3b 33
       39 118 -23 -58 105 10 8 -42 127 93 -28 16 34 -18 59 51
000080 0f ab 0f aa 1b c6 16 bf 16 3f 43 f5 11 7f 4a 3e
       15 -85 15 -86 27 -58 22 -65 22 63 67 -11 17 127 74 62
000090 0c e2 01 7f 25 f6 22 c9 c7 6f 1b ef fc c7 f7 f5
       12 -30 1 127 37 -10 34 -55 -57 111 27 -17 -4 -57 -9 -11
0000a0 f4 12 cb 81 02 04 f3 1c 23 dd 15 ec eb d5 04 15
       -12 18 -53 -127 2 4 -13 28 35 -35 21 -20 -21 -43 4 21
0000b0 fe 0f 17 ec 4e e4 5c bf aa 27 02 21 fc 7f b7 de
       -2 15 23 -20 78 -28 92 -65 -86 39 2 33 -4 127 -73 -34
0000c0 57 f1 81 e7 2b a1 23 0f 07 34 a1 c1 dc 7f 08 29
       87 -15 -127 -25 43 -95 35 15 7 52 -95 -63 -36 127 8 41
0000d0 ed 06 e7 0c 02 81 fd 0f 04 f7 07 02 0c f2 07 09
       -19 6 -25 12 2 -127 -3 15 4 -9 7 2 12 -14 7 9
0000e0 10 e9 60 dd 49 04 81 ab ea ca 27 0f 11 bd eb e0
       16 -23 96 -35 73 4 -127 -85 -22 -54 39 15 17 -67 -21 -32
0000f0 9e 1e e8 cf fd 08 7f 32 dd 24 5b e7 10 50 3c f9
       -98 30 -24 -49 -3 8 127 50 -35 36 91 -25 16 80 60 -7

model_1/block_5_project/Conv2D i1 [16, 1, 1, 96]
000000 f1 f1 08 e2 14 fb dc fe 14 02 f6 07 fb f4 e8 08
       -15 -15 8 -30 20 -5 -36 -2 20 2 -10 7 -5 -12 -24 8
000010 ff 03 00 01 0d dd 07 08 03 0f 07 7f 1e db 2a f3
       -1 3 0 1 13 -35 7 8 3 15 7 127 30 -37 42 -13
000020 fe 05 05 04 f7 10 db fc f2 06 01 28 09 10 0e 07
       -2 5 5 4 -9 16 -37 -4 -14 6 1 40 9 16 14 7
000030 12 fe fa 0a 0e e9 f2 54 08 06 e1 df fb 15 01 e9
       18 -2 -6 10 14 -23 -14 84 8 6 -31 -33 -5 21 1 -23
000040 da c0 ea 25 03 08 15 f3 fc e1 f9 ea e9 12 05 0b
       -38 -64 -22 37 3 8 21 -13 -4 -31 -7 -22 -23 18 5 11
000050 f9 e2 1c 13 fa f7 fa a5 05 f0 0a f9 31 e2 df f0
       -7 -30 28 19 -6 -9 -6 -91 5 -16 10 -7 49 -30 -33 -16
000060 20 bb bf c6 7f f3 41 1f ee ae d0 f4 08 f6 c8 28
       32 -69 -65 -58 127 -13 65 31 -18 -82 -48 -12 8 -10 -56 40
000070 c4 01 31 2c 17 22 f7 d1 0b fc f8 ba 1a e9 c2 1f
       -60 1 49 44 23 34 -9 -47 11 -4 -8 -70 26 -23 -62 31
000080 ee 18 02 ff 0b fc 01 16 de 19 db f1 d8 52 0f 0a
       -18 24 2 -1 11 -4 1 22 -34 25 -37 -15 -40 82 15 10
000090 15 be 0f df e5 1e 2b 11 d0 e7 db dc 11 e6 04 dc
       21 -66 15 -33 -27 30 43 17 -48 -25 -37 -36 17 -26 4 -36
0000a0 b4 60 e8 e5 f6 e8 ee 15 35 a1 e1 00 25 d2 2e 0b
       -76 96 -24 -27 -10 -24 -18 21 53 -95 -31 0 37 -46 46 11
0000b0 0a e6 18 05 c9 1a f1 1c 16 d9 fe 04 1b 04 15 5e
       10 -26 24 5 -55 26 -15 28 22 -39 -2 4 27 4 21 94
0000c0 01 3a ac f9 52 4b 26 41 fa 9a 03 f1 02 01 1d 19
       1 58 -84 -7 82 75 38 65 -6 -102 3 -15 2 1 29 25
0000d0 0e f4 ce 39 19 02 46 19 31 14 f6 d5 23 f3 32 c6
       14 -12 -50 57 25 2 70 25 49 20 -10 -43 35 -13 50 -58
0000e0 22 2e e8 1b 81 ac 17 17 01 d9 0e e7 1d dd 07 3b
       34 46 -24 27 -127 -84 23 23 1 -39 14 -25 29 -35 7 59
0000f0 e5 18 e7 f6 56 fc f5 2e 17 11 21 0b 13 12 20 e7
       -27 24 -25 -10 86 -4 -11 46 23 17 33 11 19 18 32 -25

model_1/block_5_depthwise_BN/FusedBatchNormV3;model_1/block_5_depthwise/depthwise;model_1/block_6_expand/Conv2D i1 [1, 3, 3, 96]
000000 d1 b8 f6 7f 16 47 4c c6 f0 ee f1 fc e2 00 25 02
       -47 -72 -10 127 22 71 76 -58 -16 -18 -15 -4 -30 0 37 2
000010 f7 d3 1b 16 13 81 7f 05 ab 09 31 e4 81 81 26 18
       -9 -45 27 22 19 -127 127 5 -85 9 49 -28 -127 -127 38 24
000020 0c 1a 3c ee e2 f6 1e f9 f4 1b 93 47 19 bd 26 2d
       12 26 60 -18 -30 -10 30 -7 -12 27 -109 71 25 -67 38 45
000030 ee 35 e8 13 04 fa 10 30 a6 ce c3 ec f5 00 0a 26
       -18 53 -24 19 4 -6 16 48 -90 -50 -61 -20 -11 0 10 38
000040 43 e7 4b 0d f8 0f 13 7f 17 16 19 00 f6 11 7f f9
       67 -25 75 13 -8 15 19 127 23 22 25 0 -10 17 127 -7
000050 f2 0f e5 15 7d 15 b3 f0 01 e1 f1 d9 02 e7 f0 1a
       -14 15 -27 21 125 21 -77 -16 1 -31 -15 -39 2 -25 -16 26
000060 7f 81 4b 6a d5 7f 29 8b 45 04 ee 7f 7f 9e f3 0f
       127 -127 75 106 -43 127 41 -117 69 4 -18 127 127 -98 -13 15
000070 0b 7f 7f 91 7f b2 51 45 81 8f be de ca 2e c4 ec
       11 127 127 -111 127 -78 81 69 -127 -113 -66 -34 -54 46 -60 -20
000080 a8 35 81 ac d5 f2 cc 3f ff 7f 7f 53 cd 90 90 cd
       -88 53 -127 -84 -43 -14 -52 63 -1 127 127 83 -51 -112 -112 -51
000090 f1 81 2b 54 43 e1 2d 53 d2 29 b0 8d d3 d6 c3 43
       -15 -127 43 84 67 -31 45 83 -46 41 -80 -115 -45 -42 -61 67
0000a0 48 c3 1b 1e b0 1f ef 5b 74 7f 0c 14 02 3a e0 34
       72 -61 27 30 -80 31 -17 91 116 127 12 20 2 58 -32 52
0000b0 41 7f 7f e9 f8 4b 8f 7f 88 9c 05 81 a7 81 d9 6a
       65 127 127 -23 -8 75 -113 127 -120 -100 5 -127 -89 -127 -39 106
0000c0 b4 f4 1e ae 0f e5 40 f8 4f dd e4 13 ec fb f8 f4
       -76 -12 30 -82 15 -27 64 -8 79 -35 -28 19 -20 -5 -8 -12
0000d0 f7 ee 07 fd ea 97 1e fe 84 62 08 c9 76 31 f1 09
       -9 -18 7 -3 -22 -105 30 -2 -124 98 8 -55 118 49 -15 9
0000e0 01 0f 0e e2 f7 22 13 0c 19 0c 89 41 12 ef 25 0d
       1 15 14 -30 -9 34 19 12 25 12 -119 65 18 -17 37 13
0000f0 f2 0b f0 04 f7 02 fe 15 bf 06 e0 33 02 28 21 ff
       -14 11 -16 4 -9 2 -2 21 -65 6 -32 51 2 40 33 -1

model_1/block_5_expand/Conv2D i1 [96, 1, 1, 16]
000000 f9 36 eb 44 20 19 02 ed 1c 15 c2 63 0e 81 29 85
       -7 54 -21 68 32 25 2 -19 28 21 -62 99 14 -127 41 -123
000010 0f 33 fa e2 22 db 7f 85 02 55 f0 f0 ff c7 22 08
       15 51 -6 -30 34 -37 127 -123 2 85 -16 -16 -1 -57 34 8
000020 81 1a d9 f3 fc ff 34 5a db 3b 5d f9 cb 06 28 cd
       -127 26 -39 -13 -4 -1 52 90 -37 59 93 -7 -53 6 40 -51
000030 c6 49 34 48 c7 44 4d 7f 16 41 99 ff 26 c7 a9 c7
       -58 73 52 72 -57 68 77 127 22 65 -103 -1 38 -57 -87 -57
000040 07 f5 23 53 e9 51 03 33 09 f6 02 fc 17 04 81 ea
       7 -11 35 83 -23 81 3 51 9 -10 2 -4 23 4 -127 -22
000050 ed e0 3e eb 0b eb ff 1e b7 72 e9 81 f5 15 c4 dc
       -19 -32 62 -21 11 -21 -1 30 -73 114 -23 -127 -11 21 -60 -36
000060 10 07 1c f1 25 30 c6 c2 f9 ff 34 ef 7f ee f0 e3
       16 7 28 -15 37 48 -58 -62 -7 -1 52 -17 127 -18 -16 -29
000070 1c 0e 7f f8 e4 e0 0b fd b3 24 ab d2 12 fe 28 f1
       28 14 127 -8 -28 -32 11 -3 -77 36 -85 -46 18 -2 40 -15
000080 25 1f 61 52 c5 57 0b 2a 39 14 07 a3 d7 0d 81 9d
       37 31 97 82 -59 87 11 42 57 20 7 -93 -41 13 -127 -99
000090 22 85 40 33 0e df f8 1b 7f f9 51 0e e5 08 8d db
       34 -123 64 51 14 -33 -8 27 127 -7 81 14 -27 8 -115 -37
0000a0 dd b3 09 f1 9f 08 ed 2c 61 7f 27 e3 e5 36 4f f6
       -35 -77 9 -15 -97 8 -19 44 97 127 39 -29 -27 54 79 -10
0000b0 38 f4 0a 9f 0e e8 92 81 c5 2f ee e5 14 e7 25 be
       56 -12 10 -97 14 -24 -110 -127 -59 47 -18 -27 20 -25 37 -66
0000c0 ed 07 06 e0 e1 e2 b4 fa d6 b8 e7 06 18 7f 4e 33
       -19 7 6 -32 -31 -30 -76 -6 -42 -72 -25 6 24 127 78 51
0000d0 d6 91 c8 2c 0b d0 08 ee 3d 0d f6 f8 23 1c 7f 09
       -42 -111 -56 44 11 -48 8 -18 61 13 -10 -8 35 28 127 9
0000e0 06 b9 34 28 14 1c 0d 7f 0e 35 09 d4 15 30 c1 6c
       6 -71 52 40 20 28 13 127 14 53 9 -44 21 48 -63 108
0000f0 18 dd 03 3f 0f fe 61 03 05 81 0b de fd ee f8 da
       24 -35 3 63 15 -2 97 3 5 -127 11 -34 -3 -18 -8 -38

model_1/block_4_project/Conv2D i1 [16, 1, 1, 96]
000000 02 0e f8 0f 2c 4c d7 e3 29 05 12 09 fb 10 19 48
       2 14 -8 15 44 76 -41 -29 41 5 18 9 -5 16 25 72
000010 02 f7 fc fe 68 c1 05 ef e2 dd d6 a0 fc fc 34 35
       2 -9 -4 -2 104 -63 5 -17 -30 -35 -42 -96 -4 -4 52 53
000020 7c fb 01 ff 0a ed f0 0c df 11 0e da 03 df ee 16
       124 -5 1 -1 10 -19 -16 12 -33 17 14 -38 3 -33 -18 22
000030 f7 11 fe fb e2 ef 05 00 24 15 e8 ea c3 22 f4 f6
       -9 17 -2 -5 -30 -17 5 0 36 21 -24 -22 -61 34 -12 -10
000040 12 05 38 00 09 01 03 e9 c4 00 01 00 fb a9 0e f2
       18 5 56 0 9 1 3 -23 -60 0 1 0 -5 -87 14 -14
000050 21 eb c0 d7 1f ef 02 19 fd 01 10 e5 13 14 f4 7f
       33 -21 -64 -41 31 -17 2 25 -3 1 16 -27 19 20 -12 127
000060 4d a0 2c 46 f7 c8 f1 d4 e8 ae ff 0e 0f c5 de ce
       77 -96 44 70 -9 -56 -15 -44 -24 -82 -1 14 15 -59 -34 -50
000070 b7 fd 21 16 e1 95 d3 0e 7f ca bf 12 e1 4f f7 32
       -73 -3 33 22 -31 -107 -45 14 127 -54 -65 18 -31 79 -9 50
000080 06 13 cc 1a ec f8 28 ed 01 bc 48 d6 d0 0b 2d f5
       6 19 -52 26 -20 -8 40 -19 1 -68 72 -42 -48 11 45 -11
000090 25 0d ff c3 3d ae 27 f1 0d 20 f0 a1 26 c5 0e c9
       37 13 -1 -61 61 -82 39 -15 13 32 -16 -95 38 -59 14 -55
0000a0 04 ac 1b 29 1e 2f df 06 ac 2a ed 3e 20 5c 14 f1
       4 -84 27 41 30 47 -33 6 -84 42 -19 62 32 92 20 -15
0000b0 21 0b b2 23 ab 35 02 3f dc 03 0b 0a ff db 25 03
       33 11 -78 35 -85 53 2 63 -36 3 11 10 -1 -37 37 3
0000c0 17 13 07 e6 0a 04 f5 27 3d f0 0a 4c 02 07 34 ff
       23 19 7 -26 10 4 -11 39 61 -16 10 76 2 7 52 -1
0000d0 f6 f8 0c f2 eb c2 07 cd 02 f4 e2 15 f6 17 7f bf
       -10 -8 12 -14 -21 -62 7 -51 2 -12 -30 21 -10 23 127 -65
0000e0 0b b2 ea 3f 0d 7b ce e6 07 ea 01 28 d6 ce c6 19
       11 -78 -22 63 13 123 -50 -26 7 -22 1 40 -42 -50 -58 25
0000f0 1a 21 e5 dc 18 07 fa dd e7 08 02 18 fc 00 50 5d
       26 33 -27 -36 24 7 -6 -35 -25 8 2 24 -4 0 80 93

model_1/block_4_depthwise_BN/FusedBatchNormV3;model_1/block_4_depthwise/depthwise;model_1/block_6_expand/Conv2D i1 [1, 3, 3, 96]
000000 ef 06 ec 68 f0 16 c1 cb 11 fa 64 f7 03 f8 fb 37
       -17 6 -20 104 -16 22 -63 -53 17 -6 100 -9 3 -8 -5 55
000010 05 0f df 03 4a 03 1f de 02 11 2b 30 15 0d 18 2f
       5 15 -33 3 74 3 31 -34 2 17 43 48 21 13 24 47
000020 f8 1c 0a f2 05 30 c5 e6 14 09 1a 11 aa c8 1a fb
       -8 28 10 -14 5 48 -59 -26 20 9 26 17 -86 -56 26 -5
000030 f5 ec f8 fa 31 05 f7 02 fd dd 1d e2 1a fe 7f 1b
       -11 -20 -8 -6 49 5 -9 2 -3 -35 29 -30 26 -2 127 27
000040 f3 f5 0a cb 43 23 02 fa 4f df 46 04 11 81 1d 41
       -13 -11 10 -53 67 35 2 -6 79 -33 70 4 17 -127 29 65
000050 01 0f 7f f2 26 1d e3 ed 23 f9 f2 51 01 13 fe 0c
       1 15 127 -14 38 29 -29 -19 35 -7 -14 81 1 19 -2 12
000060 d0 0c f8 0a 34 f8 f5 81 27 0e 81 fc ef f4 04 5d
       -48 12 -8 10 52 -8 -11 -127 39 14 -127 -4 -17 -12 4 93
000070 12 e1 f3 f0 4d 9f 7f 1a c2 e0 97 f0 1b 24 cf 11
       18 -31 -13 -16 77 -97 127 26 -62 -32 -105 -16 27 36 -49 17
000080 75 0c f3 ff e9 7f bd 81 09 ed e2 0d 2e 81 7f d4
       117 12 -13 -1 -23 127 -67 -127 9 -19 -30 13 46 -127 127 -44
000090 b4 32 31 07 27 c0 1f 38 25 2a 9b 53 7f 23 04 eb
       -76 50 49 7 39 -64 31 56 37 42 -101 83 127 35 4 -21
0000a0 2b da a0 fe 26 e1 ed 2f cf d0 6b fc e3 c4 df 41
       43 -38 -96 -2 38 -31 -19 47 -49 -48 107 -4 -29 -60 -33 65
0000b0 be 3e f0 08 f6 2f 37 d8 e4 35 f3 48 81 e1 17 81
       -66 62 -16 8 -10 47 55 -40 -28 53 -13 72 -127 -31 23 -127
0000c0 01 fc e9 b6 08 12 25 16 fd fe 04 3f 00 f4 f5 07
       1 -4 -23 -74 8 18 37 22 -3 -2 4 63 0 -12 -11 7
0000d0 f4 11 f0 12 06 18 17 df 01 e0 09 0c f9 05 2e b1
       -12 17 -16 18 6 24 23 -33 1 -32 9 12 -7 5 46 -79
0000e0 2b 11 09 ea 0c 03 df ec 08 03 f0 08 17 e0 15 01
       43 17 9 -22 12 3 -33 -20 8 3 -16 8 23 -32 21 1
0000f0 07 f9 05 fb 05 06 fb 09 f9 2d 06 fe 0b ed 03 ee
       7 -7 5 -5 5 6 -5 9 -7 45 6 -2 11 -19 3 -18

model_1/block_4_expand/Conv2D i1 [96, 1, 1, 16]
000000 21 f7 7f 63 43 f0 1b e6 79 fa d3 c1 15 5a d2 b1
       33 -9 127 99 67 -16 27 -26 121 -6 -45 -63 21 90 -46 -79
000010 25 53 f8 03 56 01 05 0f 36 4e dc 7f fb e6 5f a0
       37 83 -8 3 86 1 5 15 54 78 -36 127 -5 -26 95 -96
000020 10 bc 0f 06 b5 36 d2 70 b3 a2 17 63 f7 81 58 8f
       16 -68 15 6 -75 54 -46 112 -77 -94 23 99 -9 -127 88 -113
000030 7f 79 f8 1d 81 eb b8 df fd f8 6c b7 c9 56 d7 e2
       127 121 -8 29 -127 -21 -72 -33 -3 -8 108 -73 -55 86 -41 -30
000040 fd ff 14 0e ec 25 f1 2d c3 dc fd 05 fd 81 1b 06
       -3 -1 20 14 -20 37 -15 45 -61 -36 -3 5 -3 -127 27 6
000050 7a d1 ea 08 f8 91 df 07 fe 05 81 00 14 fe f5 21
       122 -47 -22 8 -8 -111 -33 7 -2 5 -127 0 20 -2 -11 33
000060 8a c4 f1 58 d3 fa d1 11 81 b7 ac ea 12 23 fd 5d
       -118 -60 -15 88 -45 -6 -47 17 -127 -73 -84 -22 18 35 -3 93
000070 ed 07 b5 26 29 81 e3 22 02 da 0d f8 f8 0e de 09
       -19 7 -75 38 41 -127 -29 34 2 -38 13 -8 -8 14 -34 9
000080 23 ce f5 f5 0f 1d c8 c0 f0 0e b9 0d 81 00 fe 16
       35 -50 -11 -11 15 29 -56 -64 -16 14 -71 13 -127 0 -2 22
000090 0c d0 44 7f f9 21 04 c1 79 b0 09 f1 ef 3a b6 13
       12 -48 68 127 -7 33 4 -63 121 -80 9 -15 -17 58 -74 19
0000a0 81 b2 f0 d8 7a 31 28 3f 74 b1 af 22 72 8a 92 50
       -127 -78 -16 -40 122 49 40 63 116 -79 -81 34 114 -118 -110 80
0000b0 2d f4 81 0e 33 15 e8 21 f1 e1 f8 f4 ff 0f d8 06
       45 -12 -127 14 51 21 -24 33 -15 -31 -8 -12 -1 15 -40 6
0000c0 6d cb 09 05 ed c8 d1 ed 1c 05 81 ea cf f1 fc 40
       109 -53 9 5 -19 -56 -47 -19 28 5 -127 -22 -49 -15 -4 64
0000d0 17 c4 ff c4 5e 11 ad 81 34 c2 17 fe 1b ec 23 05
       23 -60 -1 -60 94 17 -83 -127 52 -62 23 -2 27 -20 35 5
0000e0 c2 25 a0 d1 60 81 3a b8 36 37 fb 91 13 78 e9 1b
       -62 37 -96 -47 96 -127 58 -72 54 55 -5 -111 19 120 -23 27
0000f0 1e f3 35 1e 2b d4 e3 fa 0d cb c1 f4 81 cc f3 32
       30 -13 53 30 43 -44 -29 -6 13 -53 -63 -12 -127 -52 -13 50

model_1/block_3_project/Conv2D i1 [16, 1, 1, 48]
000000 ef fb e8 0c 1b fc 01 69 d1 10 2b fd 14 f0 f4 10
       -17 -5 -24 12 27 -4 1 105 -47 16 43 -3 20 -16 -12 16
000010 0c f5 fa fb 40 f9 19 7f f0 53 f8 f1 1c ee 1a e4
       12 -11 -6 -5 64 -7 25 127 -16 83 -8 -15 28 -18 26 -28
000020 ed 36 10 d1 0e 2f 14 f5 96 e5 10 2e 23 17 87 cf
       -19 54 16 -47 14 47 20 -11 -106 -27 16 46 35 23 -121 -49
000030 dc f2 17 0f e1 0c 01 37 cb dc 05 d6 ec ed ff ff
       -36 -14 23 15 -31 12 1 55 -53 -36 5 -42 -20 -19 -1 -1
000040 e8 7a f7 13 0a 0a e7 f0 1b d3 11 17 e9 aa da 16
       -24 122 -9 19 10 10 -25 -16 27 -45 17 23 -23 -86 -38 22
000050 ec fc 1e ff fb d8 00 0f ee e0 7f 0e 08 00 19 f2
       -20 -4 30 -1 -5 -40 0 15 -18 -32 127 14 8 0 25 -14
000060 ea fa f6 db ff c2 03 eb 03 0b 0e 19 0d 0f f2 09
       -22 -6 -10 -37 -1 -62 3 -21 3 11 14 25 13 15 -14 9
000070 fe ea e7 f1 fd ff fe 81 f4 47 f3 05 fe ee ff fc
       -2 -22 -25 -15 -3 -1 -2 -127 -12 71 -13 5 -2 -18 -1 -4
000080 f9 33 0c fe 17 0a 1b 01 d7 05 ef fb fe f6 11 06
       -7 51 12 -2 23 10 27 1 -41 5 -17 -5 -2 -10 17 6
000090 f8 21 02 e1 fe 01 04 fb ec fe 02 25 81 05 fd fe
       -8 33 2 -31 -2 1 4 -5 -20 -2 2 37 -127 5 -3 -2
0000a0 01 04 ed fd e1 07 05 0f f8 f4 01 19 f6 11 05 12
       1 4 -19 -3 -31 7 5 15 -8 -12 1 25 -10 17 5 18
0000b0 04 00 11 12 f8 1b 26 04 09 06 16 e5 09 fa 04 13
       4 0 17 18 -8 27 38 4 9 6 22 -27 9 -6 4 19
0000c0 24 de 0a 08 12 1e 16 eb e4 05 f5 ed ff 0d ff 10
       36 -34 10 8 18 30 22 -21 -28 5 -11 -19 -1 13 -1 16
0000d0 17 f8 af 07 fe 0e 0e 47 fd e6 08 32 09 b8 12 06
       23 -8 -81 7 -2 14 14 71 -3 -26 8 50 9 -72 18 6
0000e0 0e db 1e 81 0b 25 01 10 eb 14 08 e5 f4 ec 0c 06
       14 -37 30 -127 11 37 1 16 -21 20 8 -27 -12 -20 12 6
0000f0 21 00 ee 3a fd f7 09 17 ff fc 29 06 01 34 04 00
       33 0 -18 58 -3 -9 9 23 -1 -4 41 6 1 52 4 0

model_1/block_3_depthwise_BN/FusedBatchNormV3;model_1/block_3_depthwise/depthwise i1 [1, 3, 3, 48]
000000 44 a4 61 47 35 de 6a c0 3c a8 af 2f 34 d6 b8 a6
       68 -92 97 71 53 -34 106 -64 60 -88 -81 47 52 -42 -72 -90
000010 66 4f 30 4e 42 b5 ad 33 e0 d8 c1 c0 bd 3d c1 8e
       102 79 48 78 66 -75 -83 51 -32 -40 -63 -64 -67 61 -63 -114
000020 f3 29 44 40 bf 35 cf e9 33 b7 39 3e a1 0b 4b e0
       -13 41 68 64 -65 53 -49 -23 51 -73 57 62 -95 11 75 -32
000030 51 9f 7f 55 b2 bc c6 ab 5f 9a bf 49 4f 93 a0 5b
       81 -97 127 85 -78 -68 -58 -85 95 -102 -65 73 79 -109 -96 91
000040 d9 60 52 7f 55 8b 35 47 cd b3 bc b0 37 4f e2 81
       -39 96 82 127 85 -117 53 71 -51 -77 -68 -80 55 79 -30 -127
000050 ab 4f 51 53 ae 52 ae f1 4b a2 52 5a b6 81 5d 99
       -85 79 81 83 -82 82 -82 -15 75 -94 82 90 -74 -127 93 -103
000060 23 d2 46 25 12 d6 d0 da 2a e0 04 22 1c b2 c8 ff
       35 -46 70 37 18 -42 -48 -38 42 -32 4 34 28 -78 -56 -1
000070 ca 26 22 45 22 c8 20 19 e4 d3 d6 e9 1f 1f 58 a7
       -54 38 34 69 34 -56 32 25 -28 -45 -42 -23 31 31 88 -89
000080 ab 2c 23 21 e3 27 da f6 28 d7 22 2b fb f7 24 b6
       -85 44 35 33 -29 39 -38 -10 40 -41 34 43 -5 -9 36 -74
000090 5c 91 d6 5d 38 ae 7f a6 57 8f b9 51 53 92 f2 81
       92 -111 -42 93 56 -82 127 -90 87 -113 -71 81 83 -110 -14 -127
0000a0 7f 6b 4a d9 54 6c 81 49 49 b5 a3 9e 81 56 bb f8
       127 107 74 -39 84 108 -127 73 73 -75 -93 -98 -127 86 -69 -8
0000b0 a8 46 6a 60 ac 4f b0 59 54 9c 57 5a a8 6b 5d a3
       -88 70 106 96 -84 79 -80 89 84 -100 87 90 -88 107 93 -93
0000c0 7f 81 c0 7f 81 81 a4 81 7f 81 81 7f 7f 81 e9 60
       127 -127 -64 127 -127 -127 -92 -127 127 -127 -127 127 127 -127 -23 96
0000d0 be 7f 7f cd 7f 7f 46 7f 7f 81 81 81 35 7f e3 10
       -66 127 127 -51 127 127 70 127 127 -127 -127 -127 53 127 -29 16
0000e0 81 7f 7f 7f 81 7f 81 7f 7f 81 7f 7f 81 f5 7f 81
       -127 127 127 127 -127 127 -127 127 127 -127 127 127 -127 -11 127 -127
0000f0 3e b2 df 41 25 c1 cf c2 38 d6 c4 3a 30 ca f0 0a
       62 -78 -33 65 37 -63 -49 -62 56 -42 -60 58 48 -54 -16 10

model_1/block_3_expand/Conv2D i1 [48, 1, 1, 8]
000000 81 ff 02 4f d9 2d 18 dd 19 42 2c 17 0f d6 66 7f
       -127 -1 2 79 -39 45 24 -35 25 66 44 23 15 -42 102 127
000010 dc 02 03 fc 81 f5 0a 01 59 ff f9 92 81 0e 22 ec
       -36 2 3 -4 -127 -11 10 1 89 -1 -7 -110 -127 14 34 -20
000020 81 2f ec eb 4c f5 33 1a 92 e2 15 fb 81 08 07 5a
       -127 47 -20 -21 76 -11 51 26 -110 -30 21 -5 -127 8 7 90
000030 ea 81 1a f1 0b fe ff 26 bc f8 03 6a 7f dd da 09
       -22 -127 26 -15 11 -2 -1 38 -68 -8 3 106 127 -35 -38 9
000040 48 ff fe 81 01 ee cf dd fa 81 f3 fa fe 4f d0 55
       72 -1 -2 -127 1 -18 -49 -35 -6 -127 -13 -6 -2 79 -48 85
000050 9a fd 01 19 81 47 40 ee 6e 0d 24 0c c8 d7 dc 81
       -102 -3 1 25 -127 71 64 -18 110 13 36 12 -56 -41 -36 -127
000060 03 0e 29 f9 08 b0 7f 3b 44 e7 fa eb 75 7f 71 d2
       3 14 41 -7 8 -80 127 59 68 -25 -6 -21 117 127 113 -46
000070 7f 38 ea 18 91 ea e8 ee f3 81 0f f0 05 07 06 21
       127 56 -22 24 -111 -22 -24 -18 -13 -127 15 -16 5 7 6 33
000080 ca f3 05 fb 81 fb 12 0a e4 61 8c 02 0a 81 69 a9
       -54 -13 5 -5 -127 -5 18 10 -28 97 -116 2 10 -127 105 -87
000090 7f e4 d1 0f bf 1e 09 65 7f d1 ef ff 31 f9 25 0d
       127 -28 -47 15 -65 30 9 101 127 -47 -17 -1 49 -7 37 13
0000a0 7f 13 f5 6d fe 22 07 ca 03 27 c3 02 ec 61 81 9f
       127 19 -11 109 -2 34 7 -54 3 39 -61 2 -20 97 -127 -97
0000b0 81 12 25 f6 e3 06 c5 e1 d7 ca 04 16 81 3b 4f f3
       -127 18 37 -10 -29 6 -59 -31 -41 -54 4 22 -127 59 79 -13
0000c0 7f fd fa f9 a5 f3 07 06 16 f0 fd e6 7f 38 32 dc
       127 -3 -6 -7 -91 -13 7 6 22 -16 -3 -26 127 56 50 -36
0000d0 ff a3 03 de 06 81 53 cc ee 81 18 f3 fd c6 22 f8
       -1 -93 3 -34 6 -127 83 -52 -18 -127 24 -13 -3 -58 34 -8
0000e0 9e 1e e2 10 f2 ea 7f 62 f0 2d 0d 04 fd 29 95 81
       -98 30 -30 16 -14 -22 127 98 -16 45 13 4 -3 41 -107 -127
0000f0 7f e8 fa 0d b5 06 db e7 fb de 3a ef 11 82 7f 48
       127 -24 -6 13 -75 6 -37 -25 -5 -34 58 -17 17 -126 127 72

model_1/block_2_project/Conv2D i1 [8, 1, 1, 48]
000000 cc f0 d9 0d 03 e7 01 01 8f 7f d6 6f 75 07 49 eb
       -52 -16 -39 13 3 -25 1 1 -113 127 -42 111 117 7 73 -21
000010 f7 dc 07 02 f8 f8 e8 e3 17 a0 0b 3b f6 0f 11 d9
       -9 -36 7 2 -8 -8 -24 -29 23 -96 11 59 -10 15 17 -39
000020 fe b6 67 0f 00 f7 f9 f5 6d fe 33 e5 e4 15 ec ec
       -2 -74 103 15 0 -9 -7 -11 109 -2 51 -27 -28 21 -20 -20
000030 fb 20 7f 03 fc e6 00 a9 20 fd 16 06 e9 05 f9 88
       -5 32 127 3 -4 -26 0 -87 32 -3 22 6 -23 5 -7 -120
000040 09 c9 08 06 e7 21 19 de ec f8 0a 04 0f fd 0d fd
       9 -55 8 6 -25 33 25 -34 -20 -8 10 4 15 -3 13 -3
000050 fd 0c 0e 0b f3 de 42 c5 0a 24 f4 1a f3 08 18 fb
       -3 12 14 11 -13 -34 66 -59 10 36 -12 26 -13 8 24 -5
000060 04 ce 11 d4 22 19 fb e3 05 00 fc 0f f3 3a 07 00
       4 -50 17 -44 34 25 -5 -29 5 0 -4 15 -13 58 7 0
000070 dc 7f e5 de ef 15 d6 f7 7a 01 fe fb e3 f7 02 d5
       -36 127 -27 -34 -17 21 -42 -9 122 1 -2 -5 -29 -9 2 -43
000080 f8 f0 00 09 f5 fe f2 07 10 ec ee fe 00 1b e5 d7
       -8 -16 0 9 -11 -2 -14 7 16 -20 -18 -2 0 27 -27 -41
000090 00 aa fd 08 05 f8 f4 fe fa f0 0e 16 0f f6 34 00
       0 -86 -3 8 5 -8 -12 -2 -6 -16 14 22 15 -10 52 0
0000a0 f8 ee 05 17 fc 15 e9 05 04 31 02 0a f9 04 7f 01
       -8 -18 5 23 -4 21 -23 5 4 49 2 10 -7 4 127 1
0000b0 0d 06 fd 01 ed f2 f8 0b fa 06 f9 1b fa 03 fd 20
       13 6 -3 1 -19 -14 -8 11 -6 6 -7 27 -6 3 -3 32
0000c0 a0 09 01 03 fd dc 01 07 28 d9 10 ee e0 ff f7 f5
       -96 9 1 3 -3 -36 1 7 40 -39 16 -18 -32 -1 -9 -11
0000d0 02 06 01 17 0b e1 0a 06 f7 2a 04 6d 05 01 fa e2
       2 6 1 23 11 -31 10 6 -9 42 4 109 5 1 -6 -30
0000e0 00 81 e1 09 05 fc 05 03 cc f8 f6 0e c9 05 06 08
       0 -127 -31 9 5 -4 5 3 -52 -8 -10 14 -55 5 6 8
0000f0 e9 16 14 08 d4 0a fe 2b 18 01 0f 04 fa d7 05 22
       -23 22 20 8 -44 10 -2 43 24 1 15 4 -6 -41 5 34

model_1/block_2_depthwise_BN/FusedBatchNormV3;model_1/block_2_depthwise/depthwise;model_1/block_3_depthwise/depthwise i1 [1, 3, 3, 48]
000000 05 fd 14 6d 04 52 00 1c 0f 08 09 08 f7 f8 d3 09
       5 -3 20 109 4 82 0 28 15 8 9 8 -9 -8 -45 9
000010 fe 08 e9 8e fa ea 7f f7 fe 06 fa 08 fb 04 10 62
       -2 8 -23 -114 -6 -22 127 -9 -2 6 -6 8 -5 4 16 98
000020 14 1c 26 e5 01 22 fe 02 11 bc f7 f7 11 02 fa f6
       20 28 38 -27 1 34 -2 2 17 -68 -9 -9 17 2 -6 -10
000030 7f 0a 0f 81 1c 57 0b 0b 7b 7f 07 2b ce e8 05 08
       127 10 15 -127 28 87 11 11 123 127 7 43 -50 -24 5 8
000040 7f c8 c5 c8 9c 19 92 0f 11 46 e0 ac 17 15 09 85
       127 -56 -59 -56 -100 25 -110 15 17 70 -32 -84 23 21 9 -123
000050 05 c3 7f 0a d8 d1 fa 74 b1 9f e2 02 de f8 81 16
       5 -61 127 10 -40 -47 -6 116 -79 -97 -30 2 -34 -8 -127 22
000060 e0 fd 08 0e ff 41 04 11 1c 08 f2 1f f2 fd 0f 04
       -32 -3 8 14 -1 65 4 17 28 8 -14 31 -14 -3 15 4
000070 98 1d fd 4e e1 f4 ee fa fc c5 fd 1d f0 05 04 ea
       -104 29 -3 78 -31 -12 -18 -6 -4 -59 -3 29 -16 5 4 -22
000080 08 e7 10 ed 00 2f 29 f4 32 26 f0 0b d5 03 fe fa
       8 -25 16 -19 0 47 41 -12 50 38 -16 11 -43 3 -2 -6
000090 7d 07 01 9e 0e e6 23 f0 09 09 f3 36 f9 ff 12 e0
       125 7 1 -98 14 -26 35 -16 9 9 -13 54 -7 -1 18 -32
0000a0 00 ce c5 ab 0a b6 83 ee 05 62 f1 81 f8 21 0c 95
       0 -50 -59 -85 10 -74 -125 -18 5 98 -15 -127 -8 33 12 -107
0000b0 11 cb fe 7f fd 3a d6 29 c2 81 27 a7 d3 f2 f4 fb
       17 -53 -2 127 -3 58 -42 41 -62 -127 39 -89 -45 -14 -12 -5
0000c0 1a 81 81 73 81 81 81 81 81 a0 7f 81 7f 7f 23 81
       26 -127 -127 115 -127 -127 -127 -127 -127 -96 127 -127 127 127 35 -127
0000d0 ad 7f 7f 96 7f 7f 70 7f 7f 81 81 1c 81 81 5e 7f
       -83 127 127 -106 127 127 112 127 127 -127 -127 28 -127 -127 94 127
0000e0 81 7f e3 d7 7f 81 7f 7f 7f b1 7f 7f 7f 87 66 6a
       -127 127 -29 -41 127 -127 127 127 127 -79 127 127 127 -121 102 106
0000f0 35 05 31 f2 05 c3 2c 12 e8 0e 96 f8 00 d8 7f 04
       53 5 49 -14 5 -61 44 18 -24 14 -106 -8 0 -40 127 4

model_1/block_2_expand/Conv2D i1 [48, 1, 1, 8]
000000 47 23 fa f4 7f 15 cf e4 fb fd 04 7f 0b fc 08 10
       71 35 -6 -12 127 21 -49 -28 -5 -3 4 127 11 -4 8 16
000010 1d 81 eb 28 f9 be 4a 0a 7f e3 f4 11 f3 e0 1c 03
       29 -127 -21 40 -7 -66 74 10 127 -29 -12 17 -13 -32 28 3
000020 0a ce 7f ee f4 ce 0a a3 44 fc 04 fc 7f 0c f9 03
       10 -50 127 -18 -12 -50 10 -93 68 -4 4 -4 127 12 -7 3
000030 f7 57 f0 7f 1a 32 bf cd fb 7f ff 05 02 f2 0d ff
       -9 87 -16 127 26 50 -65 -51 -5 127 -1 5 2 -14 13 -1
000040 7f 2d 01 0a d4 e7 02 e1 81 0d 04 13 31 0b f5 01
       127 45 1 10 -44 -25 2 -31 -127 13 4 19 49 11 -11 1
000050 b4 fc 0f 7f 26 1a f4 02 81 04 0e c3 1f 03 e9 d7
       -76 -4 15 127 38 26 -12 2 -127 4 14 -61 31 3 -23 -41
000060 7f 1b fe 11 c9 f2 03 d0 f5 4f 81 f9 08 63 b3 47
       127 27 -2 17 -55 -14 3 -48 -11 79 -127 -7 8 99 -77 71
000070 ce e3 fb 7f 11 0c fd e8 fd 7f 00 fc 00 f2 09 cd
       -50 -29 -5 127 17 12 -3 -24 -3 127 0 -4 0 -14 9 -51
000080 f6 81 e5 0a fc 88 74 de 16 7f 04 f2 09 52 a9 ee
       -10 -127 -27 10 -4 -120 116 -34 22 127 4 -14 9 82 -87 -18
000090 f7 2d 81 00 06 35 de 3c bf 16 01 05 81 fe 16 16
       -9 45 -127 0 6 53 -34 60 -65 22 1 5 -127 -2 22 22
0000a0 81 ee 00 02 48 e4 28 00 c2 00 ff 03 81 fe 13 02
       -127 -18 0 2 72 -28 40 0 -62 0 -1 3 -127 -2 19 2
0000b0 81 e5 00 fc 5a ee 25 37 e9 e9 f5 fa f9 51 81 a3
       -127 -27 0 -4 90 -18 37 55 -23 -23 -11 -6 -7 81 -127 -93
0000c0 f7 2a 81 03 09 2e ec 49 61 de fb 7f b6 f5 08 cf
       -9 42 -127 3 9 46 -20 73 97 -34 -5 127 -74 -11 8 -49
0000d0 02 ea fa 02 f8 73 7f e6 48 f6 03 12 7f 1f 27 ef
       2 -22 -6 2 -8 115 127 -26 72 -10 3 18 127 31 39 -17
0000e0 fd 7c bb 06 0d 4f e1 7f f8 11 fc f8 fb 53 81 a8
       -3 124 -69 6 13 79 -31 127 -8 17 -4 -8 -5 83 -127 -88
0000f0 04 fc 02 81 f9 01 fd f3 c4 08 03 04 81 0a 0f fc
       4 -4 2 -127 -7 1 -3 -13 -60 8 3 4 -127 10 15 -4

model_1/block_1_project/Conv2D i1 [8, 1, 1, 48]
000000 f5 01 07 a4 08 19 05 07 02 07 03 fa 5f 00 ff 04
       -11 1 7 -92 8 25 5 7 2 7 3 -6 95 0 -1 4
000010 00 f8 f9 01 4c fc 00 06 1f 25 0d 0d 03 05 01 81
       0 -8 -7 1 76 -4 0 6 31 37 13 13 3 5 1 -127
000020 0b 07 fe ff e4 00 f1 20 07 e6 f7 06 04 00 04 02
       11 7 -2 -1 -28 0 -15 32 7 -26 -9 6 4 0 4 2
000030 dd f9 fd fa 2b 1b e3 4a 13 07 e5 ea 0d 00 11 21
       -35 -7 -3 -6 43 27 -29 74 19 7 -27 -22 13 0 17 33
000040 00 26 10 d0 ff 15 7f 14 e4 00 36 03 15 fd 12 f4
       0 38 16 -48 -1 21 127 20 -28 0 54 3 21 -3 18 -12
000050 0c f7 f8 ea 06 cd 0b 05 f9 f6 b4 fa e0 09 d1 a4
       12 -9 -8 -22 6 -51 11 5 -7 -10 -76 -6 -32 9 -47 -92
000060 c7 0d 00 08 2a f4 1d 19 f5 37 0a fd 05 00 09 34
       -57 13 0 8 42 -12 29 25 -11 55 10 -3 5 0 9 52
000070 00 0c 81 17 00 0d 05 f0 de 03 26 04 08 1d 18 04
       0 12 -127 23 0 13 5 -16 -34 3 38 4 8 29 24 4
000080 05 f8 f5 f3 0e 04 05 03 25 f7 e2 02 17 c8 1a 10
       5 -8 -11 -13 14 4 5 3 37 -9 -30 2 23 -56 26 16
000090 01 01 00 09 fc 1e 01 fc 42 11 ff fb 1b 00 e1 f8
       1 1 0 9 -4 30 1 -4 66 17 -1 -5 27 0 -31 -8
0000a0 00 ff f9 01 ff 00 06 ee f5 f7 f7 fd fa fe ff f9
       0 -1 -7 1 -1 0 6 -18 -11 -9 -9 -3 -6 -2 -1 -7
0000b0 cf 2b cc fe 05 00 01 81 ff 06 01 ce ff fe 00 07
       -49 43 -52 -2 5 0 1 -127 -1 6 1 -50 -1 -2 0 7
0000c0 00 fb 52 23 03 ed ff fc 02 fe 00 f9 b0 00 f5 02
       0 -5 82 35 3 -19 -1 -4 2 -2 0 -7 -80 0 -11 2
0000d0 00 08 04 01 40 02 ff fa ef 1c fb 2c fb ff ff 60
       0 8 4 1 64 2 -1 -6 -17 28 -5 44 -5 -1 -1 96
0000e0 04 03 ff ff 0f f6 f5 ef fd 81 05 02 01 fc 02 03
       4 3 -1 -1 15 -10 -11 -17 -3 -127 5 2 1 -4 2 3
0000f0 f9 2c 03 f9 04 2f 1a 0c ed 1c 09 36 1a 00 81 00
       -7 44 3 -7 4 47 26 12 -19 28 9 54 26 0 -127 0

model_1/block_1_depthwise_BN/FusedBatchNormV3;model_1/block_1_depthwise/depthwise;model_1/block_3_depthwise/depthwise i1 [1, 3, 3, 48]
000000 d6 ea f9 ef 07 d9 b1 bc e5 ce 09 42 22 b9 72 d5
       -42 -22 -7 -17 7 -39 -79 -68 -27 -50 9 66 34 -71 114 -43
000010 8f ab 25 f9 ff b9 91 b1 dd 84 c1 ec 46 0f 5f 1b
       -113 -85 37 -7 -1 -71 -111 -79 -35 -124 -63 -20 70 15 95 27
000020 81 a7 f9 36 13 30 81 4e b4 f2 69 95 fd de a9 6b
       -127 -89 -7 54 19 48 -127 78 -76 -14 105 -107 -3 -34 -87 107
000030 4c 0c e4 e3 39 81 81 af 3c b5 8c 6d 26 ae ff 3e
       76 12 -28 -29 57 -127 -127 -81 60 -75 -116 109 38 -82 -1 62
000040 cc 8f 3b 07 0a 8f 81 ba fc 81 89 d8 c9 15 c8 36
       -52 -113 59 7 10 -113 -127 -70 -4 -127 -119 -40 -55 21 -56 54
000050 1d 81 40 55 0e 48 a3 7f 81 06 7d 81 02 ea 81 5e
       29 -127 64 85 14 72 -93 127 -127 6 125 -127 2 -22 -127 94
000060 e0 2c 07 fb bf 93 c6 ef 57 f8 81 26 08 b9 9c f5
       -32 44 7 -5 -65 -109 -58 -17 87 -8 -127 38 8 -71 -100 -11
000070 81 e8 1c 0c f1 b4 dc e8 f5 e3 c7 f4 f6 12 e8 0a
       -127 -24 28 12 -15 -76 -36 -24 -11 -29 -57 -12 -10 18 -24 10
000080 6a aa 46 1f 0f 24 fc 10 b1 03 06 b1 ef 05 c9 0e
       106 -86 70 31 15 36 -4 16 -79 3 6 -79 -17 5 -55 14
000090 ab 81 d4 d5 f6 37 62 97 e6 94 ec 70 5a c0 1b 9f
       -85 -127 -44 -43 -10 55 98 -105 -26 -108 -20 112 90 -64 27 -97
0000a0 87 a2 5a b3 2a a8 9a 81 2a 8b b2 db 7f c4 7f 55
       -121 -94 90 -77 42 -88 -102 -127 42 -117 -78 -37 127 -60 127 85
0000b0 d5 ab f1 55 dd b3 95 59 2a 3b 68 95 a5 8b 52 77
       -43 -85 -15 85 -35 -77 -107 89 42 59 104 -107 -91 -117 82 119
0000c0 7f ae 81 81 7f 29 5d 81 64 81 91 7f 7f f2 f9 7f
       127 -82 -127 -127 127 41 93 -127 100 -127 -111 127 127 -14 -7 127
0000d0 c4 81 7f 81 7f 81 89 88 7f 9e 81 81 88 81 ba 7f
       -60 -127 127 -127 127 -127 -119 -120 127 -98 -127 -127 -120 -127 -70 127
0000e0 1c 90 7f 7f bc 81 9f 5a 3d 7f 7f 8c 8f 81 7c 7f
       28 -112 127 127 -68 -127 -97 90 61 127 127 -116 -113 -127 124 127
0000f0 cc 1f c3 ab 88 e9 1f da 7f ec b3 23 37 ba e7 d4
       -52 31 -61 -85 -120 -23 31 -38 127 -20 -77 35 55 -70 -25 -44

model_1/block_1_expand/Conv2D i1 [48, 1, 1, 8]
000000 10 81 2e d6 1a ee d2 19 4a 46 e9 a1 0b f4 ae 7f
       16 -127 46 -42 26 -18 -46 25 74 70 -23 -95 11 -12 -82 127
000010 22 05 cf 7d 3a 7f 2d 62 4f 4a b4 7f a2 f9 f8 0d
       34 5 -49 125 58 127 45 98 79 74 -76 127 -94 -7 -8 13
000020 dd 96 49 0c 07 1f d6 81 14 04 d8 2c 01 df 25 7f
       -35 -106 73 12 7 31 -42 -127 20 4 -40 44 1 -33 37 127
000030 3a f1 81 a5 70 0c 38 d9 7f 0d 13 eb 1c fb 55 c6
       58 -15 -127 -91 112 12 56 -39 127 13 19 -21 28 -5 85 -58
000040 13 a1 09 66 fc 18 f7 81 68 81 0c fe f3 0f 89 58
       19 -95 9 102 -4 24 -9 -127 104 -127 12 -2 -13 15 -119 88
000050 81 dc 8f 17 fa 0d 97 31 ec d5 f7 9d 81 e1 30 ed
       -127 -36 -113 23 -6 13 -105 49 -20 -43 -9 -99 -127 -31 48 -19
000060 10 04 d9 45 ba ed 38 7f 00 00 00 00 00 00 00 00
       16 4 -39 69 -70 -19 56 127 0 0 0 0 0 0 0 0
000070 fc de f9 0a 2c 7f 2c 2c 2d 02 13 81 45 2c c4 48
       -4 -34 -7 10 44 127 44 44 45 2 19 -127 69 44 -60 72
000080 00 00 00 00 00 00 00 00 0f 18 7f 18 e5 fa 1a 1a
       0 0 0 0 0 0 0 0 15 24 127 24 -27 -6 26 26
000090 56 81 15 22 fc 13 87 ff 81 f5 1d 49 c8 ca 9e 41
       86 -127 21 34 -4 19 -121 -1 -127 -11 29 73 -56 -54 -98 65
0000a0 20 24 d4 79 ea 81 fe 3e 3a 14 7f 0c f3 f7 41 0a
       32 36 -44 121 -22 -127 -2 62 58 20 127 12 -13 -9 65 10
0000b0 ae ec 81 01 06 0e 95 04 99 7f eb eb 07 f3 7d af
       -82 -20 -127 1 6 14 -107 4 -103 127 -21 -21 7 -13 125 -81
0000c0 06 cb cd 55 f9 c4 61 7f 0e 27 1f 1b 7e 7f b1 cb
       6 -53 -51 85 -7 -60 97 127 14 39 31 27 126 127 -79 -53
0000d0 ac e4 81 ff 08 11 a4 ff fd e1 dd 05 d6 7f 44 2d
       -84 -28 -127 -1 8 17 -92 -1 -3 -31 -35 5 -42 127 68 45
0000e0 02 e9 e8 28 15 7f 37 41 57 21 7f fe e9 f2 5d f6
       2 -23 -24 40 21 127 55 65 87 33 127 -2 -23 -14 93 -10
0000f0 ad 7f e7 e1 0b f6 67 d1 d2 a3 e7 01 26 bb 7f 70
       -83 127 -25 -31 11 -10 103 -47 -46 -93 -25 1 38 -69 127 112

model_1/expanded_conv_project/Conv2D i1 [8, 1, 1, 16]
000000 00 e9 02 ff 7f 02 ff ff 01 84 a6 fe 00 78 fc 00
       0 -23 2 -1 127 2 -1 -1 1 -124 -90 -2 0 120 -4 0
000010 00 e2 fe 55 4b 0f 16 06 01 fe 7f d4 00 20 f3 00
       0 -30 -2 85 75 15 22 6 1 -2 127 -44 0 32 -13 0
000020 00 ff ff f3 c5 04 09 01 00 02 ef 00 00 7f f8 00
       0 -1 -1 -13 -59 4 9 1 0 2 -17 0 0 127 -8 0
000030 00 f8 eb 81 4f 17 47 0f 01 3b 00 27 00 fe 13 00
       0 -8 -21 -127 79 23 71 15 1 59 0 39 0 -2 19 0
000040 00 32 e7 24 ca 21 7f 08 00 c3 10 f9 00 f8 0f 00
       0 50 -25 36 -54 33 127 8 0 -61 16 -7 0 -8 15 0
000050 00 f0 f4 00 ea ea f2 0f 00 0a fa d3 00 fb 7f 00
       0 -16 -12 0 -22 -22 -14 15 0 10 -6 -45 0 -5 127 0
000060 00 10 fc 04 36 e7 e9 fa 00 93 71 42 00 7f 40 00
       0 16 -4 4 54 -25 -23 -6 0 -109 113 66 0 127 64 0
000070 00 0f ef 7f 06 fb 13 0b ff 43 ca 4b 00 f8 34 00
       0 15 -17 127 6 -5 19 11 -1 67 -54 75 0 -8 52 0

model_1/expanded_conv_depthwise_BN/FusedBatchNormV3;model_1/expanded_conv_depthwise/depthwise;model_1/block_5_project/Conv2D i1 [1, 3, 3, 16]
000000 94 13 ae 82 27 bd 50 b4 a6 fd f8 1d 81 05 36 b7
       -108 19 -82 -126 39 -67 80 -76 -90 -3 -8 29 -127 5 54 -73
000010 33 19 81 7f 7f 81 7f 81 ac 7f 81 33 97 05 7f e7
       51 25 -127 127 127 -127 127 -127 -84 127 -127 51 -105 5 127 -25
000020 18 e8 5a fe b8 43 a1 4e a1 e5 04 f1 3d 01 9a e3
       24 -24 90 -2 -72 67 -95 78 -95 -27 4 -15 61 1 -102 -29
000030 81 7f e9 0d d4 0f e3 0e e4 00 03 93 cf 08 e2 f2
       -127 127 -23 13 -44 15 -29 14 -28 0 3 -109 -49 8 -30 -14
000040 b2 d6 c7 f2 f8 e6 08 e5 94 a7 15 f4 98 81 01 17
       -78 -42 -57 -14 -8 -26 8 -27 -108 -89 21 -12 -104 -127 1 23
000050 0e 01 40 02 03 21 e6 22 81 06 fe 02 eb 0c fc 2b
       14 1 64 2 3 33 -26 34 -127 6 -2 2 -21 12 -4 43
000060 8d b8 44 02 fa 27 d9 34 b4 00 00 04 28 02 e5 17
       -115 -72 68 2 -6 39 -39 52 -76 0 0 4 40 2 -27 23
000070 17 fc 1f fe e5 28 de 15 83 f3 00 54 c6 00 e3 91
       23 -4 31 -2 -27 40 -34 21 -125 -13 0 84 -58 0 -29 -111
000080 15 f9 13 00 04 0e 09 16 8d 04 ff 81 6b 02 11 81
       21 -7 19 0 4 14 9 22 -115 4 -1 -127 107 2 17 -127

model_1/Conv1/Conv2D i1 [16, 3, 3, 3]
000000 00 00 00 00 00 00 00 00 00 00 00 00 00 00 00 00
       0 0 0 0 0 0 0 0 0 0 0 0 0 0 0 0
000010 00 00 00 00 00 00 00 00 00 00 00 32 f7 1b ff e4
       0 0 0 0 0 0 0 0 0 0 0 50 -9 27 -1 -28
000020 0d 83 81 bb 06 f6 fc ee ff f9 05 dd 05 00 0d fc
       13 -125 -127 -69 6 -10 -4 -18 -1 -7 5 -35 5 0 13 -4
000030 00 04 fc 2c eb 0c 20 f8 f9 4f 72 00 2a d9 07 0e
       0 4 -4 44 -21 12 32 -8 -7 79 114 0 42 -39 7 14
000040 0c fe 48 7f e3 15 fb f9 36 bf 14 4d d5 eb 23 c9
       12 -2 72 127 -29 21 -5 -7 54 -65 20 77 -43 -21 35 -55
000050 0f 0b 1e 01 27 5d 14 00 04 fa 19 22 04 4a 7f 1a
       15 11 30 1 39 93 20 0 4 -6 25 34 4 74 127 26
000060 f2 ec 03 08 00 01 1e 1a 09 ff fc 02 29 4c f3 0f
       -14 -20 3 8 0 1 30 26 9 -1 -4 2 41 76 -13 15
000070 54 f0 ed 0b fe 2e 5f 30 20 7d 1e 1e 39 f1 37 54
       84 -16 -19 11 -2 46 95 48 32 125 30 30 57 -15 55 84
000080 24 2e 7f 0e eb 1a 15 0a 03 86 ff 02 98 fd 1d e6
       36 46 127 14 -21 26 21 10 3 -122 -1 2 -104 -3 29 -26
000090 07 d8 81 02 d6 92 02 0e eb 02 0d f0 06 01 f9 05
       7 -40 -127 2 -42 -110 2 14 -21 2 13 -16 6 1 -7 5
0000a0 0f f8 18 bf 24 2f a8 28 08 eb 07 24 9f 3f 40 81
       15 -8 24 -65 36 47 -88 40 8 -21 7 36 -97 63 64 -127
0000b0 49 06 e2 10 13 dd 0d 0e d4 1b f2 07 fe e5 0f 01
       73 6 -30 16 19 -35 13 14 -44 27 -14 7 -2 -27 15 1
0000c0 9c d6 ff e7 14 01 f5 f4 fd 81 a0 f7 f8 f9 04 e7
       -100 -42 -1 -25 20 1 -11 -12 -3 -127 -96 -9 -8 -7 4 -25
0000d0 18 f4 f0 06 fd e9 17 fc 81 97 95 82 9c 91 89 df
       24 -12 -16 6 -3 -23 23 -4 -127 -105 -107 -126 -100 -111 -119 -33
0000e0 bf 82 99 8f 81 9a 8b 88 e6 bf 8a 18 f6 89 16 c5
       -65 -126 -103 -113 -127 -102 -117 -120 -26 -65 -118 24 -10 -119 22 -59
0000f0 91 3d 0f eb fa 05 f4 f4 fb 06 01 f3 65 71 f2 52
       -111 61 15 -21 -6 5 -12 -12 -5 6 1 -13 101 113 -14 82
