OPENMV代码程序（4.5.9-4.6.2）/垃圾分类/garbage.tflite (tflite, 56672 bytes, 21 tensors)

model_1/logits/Conv2D i1 [4, 1, 1, 32]
000000 27 d1 c6 dc 7f de 0f da 51 04 50 49 ba e9 ee 0a
       39 -47 -58 -36 127 -34 15 -38 81 4 80 73 -70 -23 -18 10
000010 06 e7 b2 06 f8 4c f7 47 ff 06 f9 f5 58 df 22 f6
       6 -25 -78 6 -8 76 -9 71 -1 6 -7 -11 88 -33 34 -10
000020 33 50 97 eb c3 2d 7c 2a cb ad a2 13 65 b9 5b 84
       51 80 -105 -21 -61 45 124 42 -53 -83 -94 19 101 -71 91 -124
000030 7f 8a 0a c9 09 a0 a1 dd f5 a4 47 be ac 85 e6 df
       127 -118 10 -55 9 -96 -95 -35 -11 -92 71 -66 -84 -123 -26 -33
000040 da 69 13 4c c3 f4 54 2b a7 81 59 ba a5 52 95 4d
       -38 105 19 76 -61 -12 84 43 -89 -127 89 -70 -91 82 -107 77
000050 34 51 58 be ee f3 e0 d1 18 d8 58 97 d3 0d 4b 4a
       52 81 88 -66 -18 -13 -32 -47 24 -40 88 -105 -45 13 75 74
000060 48 ba 49 09 e8 67 2b fa f2 9f 1e 5c 43 f8 81 e4
       72 -70 73 9 -24 103 43 -6 -14 -97 30 92 67 -8 -127 -28
000070 63 a8 5b 00 97 ea ea d8 54 f6 aa 53 a5 64 22 28
       99 -88 91 0 -105 -22 -22 -40 84 -10 -86 83 -91 100 34 40

model_1/head/Conv2D i1 [32, 1, 1, 96]
000000 cc c2 60 06 55 ea a8 a3 3a 8c 91 fd 36 05 d9 2b
       -52 -62 96 6 85 -22 -88 -93 58 -116 -111 -3 54 5 -39 43
000010 c3 d5 b1 d0 b8 96 f5 68 83 0a 3e c5 68 02 e0 ac
       -61 -43 -79 -48 -72 -106 -11 104 -125 10 62 -59 104 2 -32 -84
000020 50 bb a3 32 8b ac b0 19 43 9a 99 5b 2f 93 61 eb
       80 -69 -93 50 -117 -84 -80 25 67 -102 -103 91 47 -109 97 -21
000030 0c cd e0 5b ae c4 a3 65 12 35 64 8c b5 42 c9 15
       12 -51 -32 91 -82 -60 -93 101 18 53 100 -116 -75 66 -55 21
000040 f7 0c 3f 5d 34 4e 47 81 5d a0 21 4d 9b ff c3 10
       -9 12 63 93 52 78 71 -127 93 -96 33 77 -101 -1 -61 16
000050 31 11 5a f7 c0 ca a5 63 1a 6b f6 8d 0a 42 1f 04
       49 17 90 -9 -64 -54 -91 99 26 107 -10 -115 10 66 31 4
000060 d2 18 9d f9 e5 52 23 f2 4f 9e 9a 77 3f e5 13 45
       -46 24 -99 -7 -27 82 35 -14 79 -98 -102 119 63 -27 19 69
000070 5e da 11 7f d0 ec 10 19 23 14 d9 51 fa 0c 5c c5
       94 -38 17 127 -48 -20 16 25 35 20 -39 81 -6 12 92 -59
000080 32 60 0b 13 20 40 ea bb c6 0b e8 a0 dc 27 e8 c6
       50 96 11 19 32 64 -22 -69 -58 11 -24 -96 -36 39 -24 -58
000090 df a5 77 42 f2 4c b2 cd 18 5e 3e 50 cd 54 c8 a2
       -33 -91 119 66 -14 76 -78 -51 24 94 62 80 -51 84 -56 -94
0000a0 c8 24 39 18 66 1a fe 11 91 5f cd 13 57 bd d1 32
       -56 36 57 24 102 26 -2 17 -111 95 -51 19 87 -67 -47 50
0000b0 b1 5e c8 90 1b 76 b4 c7 4a 4e 4a 22 5d 55 1b f9
       -79 94 -56 -112 27 118 -76 -57 74 78 74 34 93 85 27 -7
0000c0 1a 1a c7 40 e6 c7 4b 56 9b 49 d4 72 5f e9 42 81
       26 26 -57 64 -26 -57 75 86 -101 73 -44 114 95 -23 66 -127
0000d0 cb de 26 3f ac e7 4c 10 e3 59 5b 0d cf 56 49 58
       -53 -34 38 63 -84 -25 76 16 -29 89 91 13 -49 86 73 88
0000e0 c2 e7 99 95 a5 4f 61 e7 90 b4 04 f4 ab 66 e0 b5
       -62 -25 -103 -107 -91 79 97 -25 -112 -76 4 -12 -85 102 -32 -75
0000f0 5d 39 57 b2 d9 35 18 19 b5 4e cf e6 ee 37 e5 33
       93 57 87 -78 -39 53 24 25 -75 78 -49 -26 -18 55 -27 51

model_1/block_6_expand/Conv2D i1 [96, 1, 1, 16]
000000 e7 54 f2 81 c6 e1 e3 94 f1 08 f8 5d 16 c0 f4 3b
       -25 84 -14 -127 -58 -31 -29 -108 -15 8 -8 93 22 -64 -12 59
000010 e7 21 bc 02 eb ed 03 a2 4c 30 b8 0e 1e 07 34 81
       -25 33 -68 2 -21 -19 3 -94 76 48 -72 14 30 7 52 -127
000020 ea 07 e1 2f 2e 0b 9c b2 7f f3 09 19 e6 46 aa 1d
       -22 7 -31 47 46 11 -100 -78 127 -13 9 25 -26 70 -86 29
000030 33 bb 02 97 01 d8 07 f7 55 f9 3a 2c e4 21 f9 7f
       51 -69 2 -105 1 -40 7 -9 85 -7 58 44 -28 33 -7 127
000040 a9 34 0b 2f 09 f4 f4 2f 05 06 1b ed 81 f2 e4 16
       -87 52 11 47 9 -12 -12 47 5 6 27 -19 -127 -14 -28 22
000050 02 4f 6b f9 10 3d c6 4a bc 36 00 de 0c d4 81 22
       2 79 107 -7 16 61 -58 74 -68 54 0 -34 12 -44 -127 34
000060 16 b1 7c 8f 27 01 cf 69 b6 81 35 ee f0 63 e3 4a
       22 -79 124 -113 39 1 -49 105 -74 -127 53 -18 -16 99 -29 74
000070 19 7f ed c8 6a 0f 02 d7 7a 62 e2 0d 2e f1 4a 31
       25 127 -19 -56 106 15 2 -41 122 98 -30 13 46 -15 74 49
000080 14 a1 06 9c 21 c2 0f a7 16 3f 47 ee 16 7f 4a 48
       20 -95 6 -100 33 -62 15 -89 22 63 71 -18 22 127 74 72
000090 ff d6 01 7f 24 01 24 cb d0 6e 23 f0 06 c6 fa f0
       -1 -42 1 127 36 1 36 -53 -48 110 35 -16 6 -58 -6 -16
0000a0 f6 08 c1 81 f4 fe e8 20 25 e0 17 f2 e5 d8 12 14
       -10 8 -63 -127 -12 -2 -24 32 37 -32 23 -14 -27 -40 18 20
0000b0 08 02 0f e8 41 de 5c b8 9d 24 fa 20 f0 7f b2 e3
       8 2 15 -24 65 -34 92 -72 -99 36 -6 32 -16 127 -78 -29
0000c0 72 e1 81 d0 31 8e 07 ef f1 20 9b b2 d8 79 04 3f
       114 -31 -127 -48 49 -114 7 -17 -15 32 -101 -78 -40 121 4 63
0000d0 ef 04 e7 0a fd 81 fe 0e 01 f7 05 fd 0d ee 08 0b
       -17 4 -25 10 -3 -127 -2 14 1 -9 5 -3 13 -18 8 11
0000e0 09 fb 5a d9 43 03 81 af e3 e3 2c 09 07 be f1 de
       9 -5 90 -39 67 3 -127 -81 -29 -29 44 9 7 -66 -15 -34
0000f0 88 27 ee ad 0d f1 7f 45 cd 19 77 d3 00 60 49 03
       -120 39 -18 -83 13 -15 127 69 -51 25 119 -45 0 96 73 3

model_1/block_5_project/Conv2D i1 [16, 1, 1, 96]
000000 ef f1 0e e9 15 f9 d4 08 17 ff f7 0b fb ea ea 09
       -17 -15 14 -23 21 -7 -44 8 23 -1 -9 11 -5 -22 -22 9
000010 02 ff fd 00 0a dd ff ff 03 0a 09 7f 20 de 31 f4
       2 -1 -3 0 10 -35 -1 -1 3 10 9 127 32 -34 49 -12
000020 fc 09 0a 01 f9 0e e4 e8 f2 08 fb 2b 10 0e 0c 0a
       -4 9 10 1 -7 14 -28 -24 -14 8 -5 43 16 14 12 10
000030 11 fc f5 09 10 ec f4 56 06 09 e1 e0 f2 0f fc ec
       17 -4 -11 9 16 -20 -12 86 6 9 -31 -32 -14 15 -4 -20
000040 db bf eb 2c 07 0c 18 f3 fb e2 fb e9 e7 12 07 0b
       -37 -65 -21 44 7 12 24 -13 -5 -30 -5 -23 -25 18 7 11
000050 f5 e3 18 0f f7 f8 fc a4 03 f0 0b f9 32 e2 e2 f1
       -11 -29 24 15 -9 -8 -4 -92 3 -16 11 -7 50 -30 -30 -15
000060 1a ba b9 ca 7f f8 48 17 ed b1 d5 e5 0b f5 ce 16
       26 -70 -71 -54 127 -8 72 23 -19 -79 -43 -27 11 -11 -50 22
000070 c9 05 33 2b 1a 20 fa d7 0a 03 f1 b7 17 e9 bb 1f
       -55 5 51 43 26 32 -6 -41 10 3 -15 -73 23 -23 -69 31
000080 e6 11 04 f7 12 f8 f5 00 e0 1a e3 f5 de 4c 12 06
       -26 17 4 -9 18 -8 -11 0 -32 26 -29 -11 -34 76 18 6
000090 11 bb 0f e3 ea 1a 22 10 d2 e6 d7 de 11 de 05 da
       17 -69 15 -29 -22 26 34 16 -46 -26 -41 -34 17 -34 5 -38
0000a0 bc 68 eb da ef e9 f1 17 34 a6 db 09 25 d7 2c 0c
       -68 104 -21 -38 -17 -23 -15 23 52 -90 -37 9 37 -41 44 12
0000b0 0d e5 0a 06 c6 1b eb 1f 01 d3 f6 01 14 07 2e 55
       13 -27 10 6 -58 27 -21 31 1 -45 -10 1 20 7 46 85
0000c0 f1 45 87 ef 59 68 1b 47 f9 94 08 e2 13 0d 21 10
       -15 69 -121 -17 89 104 27 71 -7 -108 8 -30 19 13 33 16
0000d0 12 f2 c3 2b 29 08 58 11 3d 17 ee ce 17 e9 38 c1
       18 -14 -61 43 41 8 88 17 61 23 -18 -50 23 -23 56 -63
0000e0 22 3d d8 20 81 b0 09 1f 08 d4 1f e1 2a cb 09 43
       34 61 -40 32 -127 -80 9 31 8 -44 31 -31 42 -53 9 67
0000f0 e8 27 db f1 5c e3 f4 2e 1e fe 21 f0 09 0b 26 e3
       -24 39 -37 -15 92 -29 -12 46 30 -2 33 -16 9 11 38 -29

model_1/block_5_depthwise_BN/FusedBatchNormV3;model_1/block_5_depthwise/depthwise;model_1/block_6_expand/Conv2D i1 [1, 3, 3, 96]
000000 cf b8 f7 7f 15 4b 4d c6 f2 ef f0 fb e2 00 25 02
       -49 -72 -9 127 21 75 77 -58 -14 -17 -16 -5 -30 0 37 2
000010 f7 d4 1b 14 13 81 7f 05 ae 09 31 e3 81 81 26 18
       -9 -44 27 20 19 -127 127 5 -82 9 49 -29 -127 -127 38 24
000020 0c 23 39 ed e1 f4 1f fc f4 1b 91 4a 19 be 25 31
       12 35 57 -19 -31 -12 31 -4 -12 27 -111 74 25 -66 37 49
000030 ee 36 ea 13 03 fa 11 31 a5 ce c5 ed f6 ff 0d 25
       -18 54 -22 19 3 -6 17 49 -91 -50 -59 -19 -10 -1 13 37
000040 44 e6 4a 0e f8 12 14 7f 18 16 18 ff f6 10 7f f9
       68 -26 74 14 -8 18 20 127 24 22 24 -1 -10 16 127 -7
000050 f1 0f e5 16 79 16 af ef 08 e1 f1 dc 02 e8 f0 1b
       -15 15 -27 22 121 22 -81 -17 8 -31 -15 -36 2 -24 -16 27
000060 7f 81 4c 6a d5 7f 2c 8b 44 05 ee 7f 7f 9b f3 0f
       127 -127 76 106 -43 127 44 -117 68 5 -18 127 127 -101 -13 15
000070 0b 7f 7f 92 7f b3 52 44 81 8b bc de cb 2d c4 ed
       11 127 127 -110 127 -77 82 68 -127 -117 -68 -34 -53 45 -60 -19
000080 a8 3b 81 ab d4 f1 cd 3a 00 7f 7f 54 cc 91 90 d0
       -88 59 -127 -85 -44 -15 -51 58 0 127 127 84 -52 -111 -112 -48
000090 f1 81 2c 54 43 e1 2e 54 d3 2a b0 8e d4 d7 c3 43
       -15 -127 44 84 67 -31 46 84 -45 42 -80 -114 -44 -41 -61 67
0000a0 49 c3 1b 1e af 22 ef 58 75 7f 0c 13 02 3a de 34
       73 -61 27 30 -81 34 -17 88 117 127 12 19 2 58 -34 52
0000b0 40 7f 7f ea f7 4c 8c 7f 90 9c 05 81 a8 81 d9 6b
       64 127 127 -22 -9 76 -116 127 -112 -100 5 -127 -88 -127 -39 107
0000c0 b0 f3 1e b0 0e e9 3d f9 4f df e3 13 ec fc f8 f4
       -80 -13 30 -80 14 -23 61 -7 79 -33 -29 19 -20 -4 -8 -12
0000d0 f8 f0 08 fc eb 97 1e fe 86 63 08 c9 74 30 f0 09
       -8 -16 8 -4 -21 -105 30 -2 -122 99 8 -55 116 48 -16 9
0000e0 00 13 0c e1 f7 23 13 0b 19 0c 85 44 11 ee 25 0f
       0 19 12 -31 -9 35 19 11 25 12 -123 68 17 -18 37 15
0000f0 f2 0d f0 06 f7 00 fe 16 bd 07 e0 33 04 29 21 fe
       -14 13 -16 6 -9 0 -2 22 -67 7 -32 51 4 41 33 -2

model_1/block_5_expand/Conv2D i1 [96, 1, 1, 16]
000000 f6 44 ee 43 23 0f 0e e6 1c 1b b6 4e 17 86 1e 81
       -10 68 -18 67 35 15 14 -26 28 27 -74 78 23 -122 30 -127
000010 03 33 0c d9 34 de 7f 8b 0c 40 e9 ee 05 d3 2f 07
       3 51 12 -39 52 -34 127 -117 12 64 -23 -18 5 -45 47 7
000020 81 0e e8 ed 01 0a 2a 27 e9 37 39 f6 df fb 27 e1
       -127 14 -24 -19 1 10 42 39 -23 55 57 -10 -33 -5 39 -31
000030 cf 48 28 41 c1 47 49 7f 02 52 b5 0e 26 b4 97 a5
       -49 72 40 65 -63 71 73 127 2 82 -75 14 38 -76 -105 -91
000040 10 f1 2d 63 e0 66 f7 3d 0a e2 0e fb 21 08 81 dd
       16 -15 45 99 -32 102 -9 61 10 -30 14 -5 33 8 -127 -35
000050 e7 ed 37 ee f6 f8 07 2b c9 5f ea 81 e3 16 c9 e3
       -25 -19 55 -18 -10 -8 7 43 -55 95 -22 -127 -29 22 -55 -29
000060 1c 09 0e ec 19 16 d1 ce f5 02 1f e0 7f f4 e9 df
       28 9 14 -20 25 22 -47 -50 -11 2 31 -32 127 -12 -23 -33
000070 2f 14 7f f7 e7 da 07 f4 b1 22 b0 d6 0a ff 2b f9
       47 20 127 -9 -25 -38 7 -12 -79 34 -80 -42 10 -1 43 -7
000080 42 23 62 75 a8 75 e3 26 59 ea 29 a8 fa 01 87 81
       66 35 98 117 -88 117 -29 38 89 -22 41 -88 -6 1 -121 -127
000090 27 9b 43 32 09 f5 fc 1a 6a ef 41 10 e5 07 81 d9
       39 -101 67 50 9 -11 -4 26 106 -17 65 16 -27 7 -127 -39
0000a0 d9 b5 f4 d6 8e f9 e6 22 46 7f 42 d0 e0 2f 61 fa
       -39 -75 -12 -42 -114 -7 -26 34 70 127 66 -48 -32 47 97 -6
0000b0 20 f3 f4 bb 13 f3 ac 81 dd 1f e9 f3 1c ef 26 d8
       32 -13 -12 -69 19 -13 -84 -127 -35 31 -23 -13 28 -17 38 -40
0000c0 e8 0a 04 c6 be d1 90 f8 b0 bd f0 ec 15 7f 55 45
       -24 10 4 -58 -66 -47 -112 -8 -80 -67 -16 -20 21 127 85 69
0000d0 ac 8c db 3d ff df 24 00 48 27 03 fa 23 1e 7f 26
       -84 -116 -37 61 -1 -33 36 0 72 39 3 -6 35 30 127 38
0000e0 1e c4 26 2d 11 24 07 7b 0c 50 0b c4 07 29 a9 7f
       30 -60 38 45 17 36 7 123 12 80 11 -60 7 41 -87 127
0000f0 15 df 04 44 10 fe 64 07 07 81 10 de 00 f0 f9 de
       21 -33 4 68 16 -2 100 7 7 -127 16 -34 0 -16 -7 -34

model_1/block_4_project/Conv2D i1 [16, 1, 1, 96]
000000 0e fe fb 0f 2d 52 e7 f3 30 09 16 07 00 05 11 4d
       14 -2 -5 15 45 82 -25 -13 48 9 22 7 0 5 17 77
000010 0f fa f3 fe 68 b4 0a f0 db e0 c7 98 ff 04 3b 32
       15 -6 -13 -2 104 -76 10 -16 -37 -32 -57 -104 -1 4 59 50
000020 7f 05 f7 0a 06 ed fd 0d e0 11 12 e2 07 e1 ec 17
       127 5 -9 10 6 -19 -3 13 -32 17 18 -30 7 -31 -20 23
000030 fa 0d 10 f6 dc f1 f7 08 24 1b e2 e8 d1 19 f0 05
       -6 13 16 -10 -36 -15 -9 8 36 27 -30 -24 -47 25 -16 5
000040 10 06 29 ff 13 07 02 ef c3 03 fc fd ee aa 0e ef
       16 6 41 -1 19 7 2 -17 -61 3 -4 -3 -18 -86 14 -17
000050 21 f3 b9 d3 1d f0 14 0f 00 0c 08 f4 1a 21 f4 6f
       33 -13 -71 -45 29 -16 20 15 0 12 8 -12 26 33 -12 111
000060 53 9e 2b 4a f1 bb ee d3 f1 a9 fd 08 0b b3 d0 c9
       83 -98 43 74 -15 -69 -18 -45 -15 -87 -3 8 11 -77 -48 -55
000070 ac fc 14 18 e9 81 cf 07 70 c2 ba 1a ec 5c fa 3d
       -84 -4 20 24 -23 -127 -49 7 112 -62 -70 26 -20 92 -6 61
000080 03 ff b7 17 ea f6 40 f0 fa b4 4a ce bd 05 3a eb
       3 -1 -73 23 -22 -10 64 -16 -6 -76 74 -50 -67 5 58 -21
000090 28 0e f4 d3 43 a2 24 f6 07 24 e1 a1 20 bf f7 c3
       40 14 -12 -45 67 -94 36 -10 7 36 -31 -95 32 -65 -9 -61
0000a0 fe 9f 29 27 2d 3b e8 02 a6 39 ef 26 29 5c 13 fa
       -2 -97 41 39 45 59 -24 2 -90 57 -17 38 41 92 19 -6
0000b0 19 fe ab 27 9a 2d e9 53 da 00 06 06 ef da 28 01
       25 -2 -85 39 -102 45 -23 83 -38 0 6 6 -17 -38 40 1
0000c0 12 17 07 f3 19 f9 f8 12 36 f9 0d 3e f9 07 3d ff
       18 23 7 -13 25 -7 -8 18 54 -7 13 62 -7 7 61 -1
0000d0 e6 fa 0d f2 f7 c2 06 d7 07 f9 ef 1a f8 0f 6a c3
       -26 -6 13 -14 -9 -62 6 -41 7 -7 -17 26 -8 15 106 -61
0000e0 0b bf e5 38 0e 7f d7 e6 03 e5 fb 14 dd d0 c8 06
       11 -65 -27 56 14 127 -41 -26 3 -27 -5 20 -35 -48 -56 6
0000f0 10 12 dd e7 18 03 02 d4 dc 0b f5 1b ff 04 44 5d
       16 18 -35 -25 24 3 2 -44 -36 11 -11 27 -1 4 68 93

model_1/block_4_depthwise_BN/FusedBatchNormV3;model_1/block_4_depthwise/depthwise;model_1/block_6_expand/Conv2D i1 [1, 3, 3, 96]
000000 ef 05 ed 69 f1 15 c2 cb 13 fb 64 f8 02 f7 fc 35
       -17 5 -19 105 -15 21 -62 -53 19 -5 100 -8 2 -9 -4 53
000010 06 0e e1 04 49 03 20 e3 01 10 2a 31 15 10 19 2e
       6 14 -31 4 73 3 32 -29 1 16 42 49 21 16 25 46
000020 f9 1e 0a f3 03 32 c0 e5 14 08 1b 12 a9 c8 1a fc
       -7 30 10 -13 3 50 -64 -27 20 8 27 18 -87 -56 26 -4
000030 f5 ed f9 f9 31 05 f7 02 fd dd 1c e1 1b fe 7f 1c
       -11 -19 -7 -7 49 5 -9 2 -3 -35 28 -31 27 -2 127 28
000040 f2 f5 09 cb 44 24 05 fb 4e dc 43 04 11 81 1c 42
       -14 -11 9 -53 68 36 5 -5 78 -36 67 4 17 -127 28 66
000050 03 10 7f f2 26 1c e3 ee 22 f6 f2 53 00 13 fe 0a
       3 16 127 -14 38 28 -29 -18 34 -10 -14 83 0 19 -2 10
000060 d0 0c f9 0b 34 f8 f6 81 25 0f 81 fc f1 f3 04 58
       -48 12 -7 11 52 -8 -10 -127 37 15 -127 -4 -15 -13 4 88
000070 11 e1 f2 f1 48 9e 7f 1c c4 df 97 ee 1b 24 cf 11
       17 -31 -14 -15 72 -98 127 28 -60 -33 -105 -18 27 36 -49 17
000080 74 0c f3 01 e8 7f c2 81 09 ed e2 0a 2f 81 7f d4
       116 12 -13 1 -24 127 -62 -127 9 -19 -30 10 47 -127 127 -44
000090 b4 33 32 07 27 c0 20 39 25 2b 9b 52 7f 23 03 ec
       -76 51 50 7 39 -64 32 57 37 43 -101 82 127 35 3 -20
0000a0 2b db a0 fd 27 e2 f0 2f cd cf 67 fc e2 c6 de 40
       43 -37 -96 -3 39 -30 -16 47 -51 -49 103 -4 -30 -58 -34 64
0000b0 bf 3c f3 07 f6 2e 36 d9 e4 32 f2 49 81 e0 17 81
       -65 60 -13 7 -10 46 54 -39 -28 50 -14 73 -127 -32 23 -127
0000c0 00 fb e9 b6 08 12 24 15 ff ff 04 3f 01 f5 f5 08
       0 -5 -23 -74 8 18 36 21 -1 -1 4 63 1 -11 -11 8
0000d0 f2 10 f0 14 08 17 18 e1 00 de 09 0f fa 06 2f b1
       -14 16 -16 20 8 23 24 -31 0 -34 9 15 -6 6 47 -79
0000e0 2a 12 0a eb 0d 03 df ea 09 02 ef 07 19 e1 17 01
       42 18 10 -21 13 3 -33 -22 9 2 -17 7 25 -31 23 1
0000f0 06 f6 07 fb 04 06 fb 09 f9 2e 09 fe 0c ef 02 ed
       6 -10 7 -5 4 6 -5 9 -7 46 9 -2 12 -17 2 -19

model_1/block_4_expand/Conv2D i1 [96, 1, 1, 16]
000000 18 f7 75 59 3f 13 1d f0 7f f8 c9 c6 1d 55 cd cc
       24 -9 117 89 63 19 29 -16 127 -8 -55 -58 29 85 -51 -52
000010 2c 7b f3 0a 5e 07 15 19 33 5c c9 74 f2 ea 69 81
       44 123 -13 10 94 7 21 25 51 92 -55 116 -14 -22 105 -127
000020 fd b1 2e 04 c6 2d c7 72 b6 86 21 5a f7 81 6b 82
       -3 -79 46 4 -58 45 -57 114 -74 -122 33 90 -9 -127 107 -126
000030 7f 7a f1 1d 99 ec c1 dc 07 02 4f c1 dc 45 e0 e4
       127 122 -15 29 -103 -20 -63 -36 7 2 79 -63 -36 69 -32 -28
000040 fb fd 0c fd e2 25 fd 28 a0 ea fe fb e9 81 14 0a
       -5 -3 12 -3 -30 37 -3 40 -96 -22 -2 -5 -23 -127 20 10
000050 7f cf e4 0a 09 90 de 17 04 fd 81 0e 24 02 fc 36
       127 -49 -28 10 9 -112 -34 23 4 -3 -127 14 36 2 -4 54
000060 a0 d5 da 41 ec 04 d5 0e 81 c5 c8 f0 18 20 f7 51
       -96 -43 -38 65 -20 4 -43 14 -127 -59 -56 -16 24 32 -9 81
000070 f8 14 be 42 26 81 f0 3d 15 db 0e 0c f7 1e cf 03
       -8 20 -66 66 38 -127 -16 61 21 -37 14 12 -9 30 -49 3
000080 2a cf e6 f4 06 0f bd b6 e8 18 b0 0c 81 f4 10 27
       42 -49 -26 -12 6 15 -67 -74 -24 24 -80 12 -127 -12 16 39
000090 08 de 41 75 f9 13 03 d5 7f b8 15 e6 08 27 de 15
       8 -34 65 117 -7 19 3 -43 127 -72 21 -26 8 39 -34 21
0000a0 8c dd e5 ce 78 33 3e 3e 62 b1 97 40 74 81 9c 64
       -116 -35 -27 -50 120 51 62 62 98 -79 -105 64 116 -127 -100 100
0000b0 34 fc 81 0d 38 18 e7 29 fa dc e1 fb fb 1b d7 01
       52 -4 -127 13 56 24 -25 41 -6 -36 -31 -5 -5 27 -41 1
0000c0 38 e9 ff 0b f5 cd e8 f2 20 f8 81 f2 d3 fa 04 31
       56 -23 -1 11 -11 -51 -24 -14 32 -8 -127 -14 -45 -6 4 49
0000d0 19 c8 1e d7 66 1c bb 81 38 c1 1b ff 01 fc 2c e1
       25 -56 30 -41 102 28 -69 -127 56 -63 27 -1 1 -4 44 -31
0000e0 ca 22 9d d6 60 86 35 bb 31 0f ed 8c 12 7f ef 19
       -54 34 -99 -42 96 -122 53 -69 49 15 -19 -116 18 127 -17 25
0000f0 2c fb 38 23 36 d0 e1 f5 0b cb bd ee 81 c3 e7 34
       44 -5 56 35 54 -48 -31 -11 11 -53 -67 -18 -127 -61 -25 52

model_1/block_3_project/Conv2D i1 [16, 1, 1, 48]
000000 ee fc dd 0d 18 f7 fb 63 d0 0c 26 ff 14 f1 ec 15
       -18 -4 -35 13 24 -9 -5 99 -48 12 38 -1 20 -15 -20 21
000010 09 f6 f9 08 3f f8 1f 7f f1 4c f5 ee 14 ef 14 ed
       9 -10 -7 8 63 -8 31 127 -15 76 -11 -18 20 -17 20 -19
000020 f4 37 13 d5 0d 27 0e f4 9b e2 12 32 27 17 86 d9
       -12 55 19 -43 13 39 14 -12 -101 -30 18 50 39 23 -122 -39
000030 dc f1 12 13 e3 0b 00 39 cf d8 03 d8 ec ec 03 fe
       -36 -15 18 19 -29 11 0 57 -49 -40 3 -40 -20 -20 3 -2
000040 e8 77 fc 12 0e 0d e8 f3 23 d5 11 16 ed a4 dc 14
       -24 119 -4 18 14 13 -24 -13 35 -43 17 22 -19 -92 -36 20
000050 ec fe 1f 00 fb dc 01 11 f1 dd 7f 0e 06 fa 16 ec
       -20 -2 31 0 -5 -36 1 17 -15 -35 127 14 6 -6 22 -20
000060 eb f7 f4 d8 02 c2 09 ee 02 0e 0c 16 0e 19 f6 05
       -21 -9 -12 -40 2 -62 9 -18 2 14 12 22 14 25 -10 5
000070 ff e7 ea f0 00 ff f8 81 f4 49 f4 09 fe ef ff fd
       -1 -25 -22 -16 0 -1 -8 -127 -12 73 -12 9 -2 -17 -1 -3
000080 ee 32 0b f9 15 0d 1d 02 d4 04 ea f9 05 f9 0f 04
       -18 50 11 -7 21 13 29 2 -44 4 -22 -7 5 -7 15 4
000090 fb 1f 05 db fe 05 06 01 ea ff 00 24 81 03 00 01
       -5 31 5 -37 -2 5 6 1 -22 -1 0 36 -127 3 0 1
0000a0 ff 03 ea fc e4 07 05 10 f8 f7 01 19 f7 12 05 13
       -1 3 -22 -4 -28 7 5 16 -8 -9 1 25 -9 18 5 19
0000b0 04 fd 11 11 fb 1a 27 06 09 08 17 e1 05 fb 05 10
       4 -3 17 17 -5 26 39 6 9 8 23 -31 5 -5 5 16
0000c0 21 dd 08 05 13 1d 14 e9 da 08 f6 ec 00 0e fc 08
       33 -35 8 5 19 29 20 -23 -38 8 -10 -20 0 14 -4 8
0000d0 19 fa ad 06 fe 0e 0d 44 f8 e8 04 33 08 b8 12 00
       25 -6 -83 6 -2 14 13 68 -8 -24 4 51 8 -72 18 0
0000e0 09 d9 1b 81 08 23 03 08 e7 15 fe e3 f1 f0 0b 07
       9 -39 27 -127 8 35 3 8 -25 21 -2 -29 -15 -16 11 7
0000f0 1e fe ef 35 01 f7 04 1c fb fd 27 08 fe 33 0c 02
       30 -2 -17 53 1 -9 4 28 -5 -3 39 8 -2 51 12 2

model_1/block_3_depthwise_BN/FusedBatchNormV3;model_1/block_3_depthwise/depthwise i1 [1, 3, 3, 48]
000000 45 a7 61 4a 35 dd 69 be 3b a6 af 2f 34 d7 b6 a5
       69 -89 97 74 53 -35 105 -66 59 -90 -81 47 52 -41 -74 -91
000010 64 4f 30 4d 42 b8 ac 33 df d7 c4 bf bd 3e bf 8e
       100 79 48 77 66 -72 -84 51 -33 -41 -60 -65 -67 62 -65 -114
000020 f2 29 45 3f c0 36 d0 ea 33 b4 36 41 a0 09 49 e3
       -14 41 69 63 -64 54 -48 -22 51 -76 54 65 -96 9 73 -29
000030 54 9c 7f 55 b2 bc c5 ab 60 98 c1 4a 51 97 9e 5c
       84 -100 127 85 -78 -68 -59 -85 96 -104 -63 74 81 -105 -98 92
000040 db 61 51 7f 55 8e 34 47 ce b4 be af 38 4f e0 81
       -37 97 81 127 85 -114 52 71 -50 -76 -66 -81 56 79 -32 -127
000050 a6 4f 51 54 b0 52 ae f0 4d 9e 4e 5a b9 81 5a 9c
       -90 79 81 84 -80 82 -82 -16 77 -98 78 90 -71 -127 90 -100
000060 22 d1 46 24 13 d5 cf d9 27 df 06 22 1d af c7 ff
       34 -47 70 36 19 -43 -49 -39 39 -33 6 34 29 -81 -57 -1
000070 cc 28 22 44 22 ca 1e 1a e5 d3 d4 e8 1e 1f 59 a7
       -52 40 34 68 34 -54 30 26 -27 -45 -44 -24 30 31 89 -89
000080 aa 2e 26 22 e3 28 db f6 29 d5 20 2b f9 f6 26 b6
       -86 46 38 34 -29 40 -37 -10 41 -43 32 43 -7 -10 38 -74
000090 5e 90 d8 5d 39 ad 7f a5 56 8f bd 52 55 92 f3 81
       94 -112 -40 93 57 -83 127 -91 86 -113 -67 82 85 -110 -13 -127
0000a0 7f 6e 4a db 55 6b 81 48 4a b2 a5 9c 81 57 b8 f7
       127 110 74 -37 85 107 -127 72 74 -78 -91 -100 -127 87 -72 -9
0000b0 a7 4a 6c 5f ac 4f b0 59 54 99 58 5a ac 69 5b a6
       -89 74 108 95 -84 79 -80 89 84 -103 88 90 -84 105 91 -90
0000c0 7f 81 c2 7f 81 81 a3 81 7f 81 81 7f 7f 81 e9 62
       127 -127 -62 127 -127 -127 -93 -127 127 -127 -127 127 127 -127 -23 98
0000d0 c0 7f 7f ce 7f 7f 45 7f 7f 81 81 81 35 7f e1 10
       -64 127 127 -50 127 127 69 127 127 -127 -127 -127 53 127 -31 16
0000e0 81 7f 7f 7f 81 7f 81 7f 7f 81 7f 7f 81 f5 7f 81
       -127 127 127 127 -127 127 -127 127 127 -127 127 127 -127 -11 127 -127
0000f0 40 b6 e0 42 26 c2 d0 c2 39 d4 c5 3b 30 c8 f1 0c
       64 -74 -32 66 38 -62 -48 -62 57 -44 -59 59 48 -56 -15 12

model_1/block_3_expand/Conv2D i1 [48, 1, 1, 8]
000000 81 01 00 40 da 32 17 dc 1d 43 36 05 fe e3 62 7f
       -127 1 0 64 -38 50 23 -36 29 67 54 5 -2 -29 98 127
000010 d3 08 06 f7 81 fc 19 f8 47 fb 02 a1 81 0e 18 eb
       -45 8 6 -9 -127 -4 25 -8 71 -5 2 -95 -127 14 24 -21
000020 81 3f 04 e6 41 0e 3c 08 88 eb 1a f9 81 0f 05 56
       -127 63 4 -26 65 14 60 8 -120 -21 26 -7 -127 15 5 86
000030 ed 81 1a f8 09 00 f6 23 b2 08 09 7a 7f d8 d7 06
       -19 -127 26 -8 9 0 -10 35 -78 8 9 122 127 -40 -41 6
000040 49 0d 03 81 09 f1 d7 d4 03 81 f6 f9 ee 48 d4 4d
       73 13 3 -127 9 -15 -41 -44 3 -127 -10 -7 -18 72 -44 77
000050 9e 00 f9 17 81 45 43 f4 70 10 26 08 ce d7 db 81
       -98 0 -7 23 -127 69 67 -12 112 16 38 8 -50 -41 -37 -127
000060 02 0f 28 fd 08 ab 7f 44 49 fa fb f2 70 7f 6a cb
       2 15 40 -3 8 -85 127 68 73 -6 -5 -14 112 127 106 -53
000070 7f 53 fa 1c a9 e6 e3 f7 f2 81 0a f3 00 09 02 1f
       127 83 -6 28 -87 -26 -29 -9 -14 -127 10 -13 0 9 2 31
000080 d5 ef 09 00 81 ff 04 ff e5 6d 85 02 13 81 5f a6
       -43 -17 9 0 -127 -1 4 -1 -27 109 -123 2 19 -127 95 -90
000090 7f e0 db 0c ba 1d 08 64 7f c9 ed ff 32 fa 28 11
       127 -32 -37 12 -70 29 8 100 127 -55 -19 -1 50 -6 40 17
0000a0 7f 0c f1 6b f2 1f 07 cd 02 09 c7 03 f1 7c 81 ae
       127 12 -15 107 -14 31 7 -51 2 9 -57 3 -15 124 -127 -82
0000b0 81 09 1d fe d9 0b c1 da d3 c2 00 12 81 3a 56 f2
       -127 9 29 -2 -39 11 -63 -38 -45 -62 0 18 -127 58 86 -14
0000c0 7f 0f 16 df aa ef 01 fb 1c f3 f9 e8 7f 33 2b d9
       127 15 22 -33 -86 -17 1 -5 28 -13 -7 -24 127 51 43 -39
0000d0 02 a6 fe e4 07 81 4c d8 f1 81 16 f3 fd c6 23 fe
       2 -90 -2 -28 7 -127 76 -40 -15 -127 22 -13 -3 -58 35 -2
0000e0 ba 27 df 1d f7 df 7f 6a f6 2c 0a 08 fb 25 90 81
       -70 39 -33 29 -9 -33 127 106 -10 44 10 8 -5 37 -112 -127
0000f0 7f f5 fd 11 b9 f3 e5 e8 01 ea 3d 08 01 81 76 44
       127 -11 -3 17 -71 -13 -27 -24 1 -22 61 8 1 -127 118 68

model_1/block_2_project/Conv2D i1 [8, 1, 1, 48]
000000 c9 f0 da 11 fe e1 fb 02 89 7a d6 7f 76 06 47 ee
       -55 -16 -38 17 -2 -31 -5 2 -119 122 -42 127 118 6 71 -18
000010 f5 e1 0f fc 01 fc e2 de 0e 94 13 3c f1 07 0b db
       -11 -31 15 -4 1 -4 -30 -34 14 -108 19 60 -15 7 11 -37
000020 f8 b4 6f 14 fe f8 fe ed 77 00 30 db de 18 f4 ef
       -8 -76 111 20 -2 -8 -2 -19 119 0 48 -37 -34 24 -12 -17
000030 f2 19 7f fa fa e2 03 a9 1f fc 18 00 e1 0b f9 89
       -14 25 127 -6 -6 -30 3 -87 31 -4 24 0 -31 11 -7 -119
000040 07 c4 0c 08 db 21 14 df ef fa 0e 09 11 f6 08 fb
       7 -60 12 8 -37 33 20 -33 -17 -6 14 9 17 -10 8 -5
000050 fa 0e 11 06 f6 da 3d c7 10 22 f1 18 fa 04 17 f6
       -6 14 17 6 -10 -38 61 -57 16 34 -15 24 -6 4 23 -10
000060 02 ce 12 d7 26 1c fc e2 03 03 fe 10 f2 3b 0c 02
       2 -50 18 -41 38 28 -4 -30 3 3 -2 16 -14 59 12 2
000070 e3 7f e8 dd ea 17 d4 fc 78 02 fd ff df f8 05 dc
       -29 127 -24 -35 -22 23 -44 -4 120 2 -3 -1 -33 -8 5 -36
000080 f5 f7 01 07 f5 00 ef 05 17 e6 f0 01 fb 19 e6 d6
       -11 -9 1 7 -11 0 -17 5 23 -26 -16 1 -5 25 -26 -42
000090 fe a6 fa 0c 0c f7 fb 04 fb f3 12 11 0f f5 30 06
       -2 -90 -6 12 12 -9 -5 4 -5 -13 18 17 15 -11 48 6
0000a0 fa ec 0a 12 fa 17 e8 fd 06 38 04 0d fe 05 7f 01
       -6 -20 10 18 -6 23 -24 -3 6 56 4 13 -2 5 127 1
0000b0 0d 0b 02 03 ee ef f4 0f f8 00 f6 1b fa fd ff 24
       13 11 2 3 -18 -17 -12 15 -8 0 -10 27 -6 -3 -1 36
0000c0 a3 0f 05 04 05 d6 06 00 24 d9 0f f3 e0 fd fc f6
       -93 15 5 4 5 -42 6 0 36 -39 15 -13 -32 -3 -4 -10
0000d0 08 0b fe 1a 09 e7 0a 04 f7 27 05 70 f7 03 fe e1
       8 11 -2 26 9 -25 10 4 -9 39 5 112 -9 3 -2 -31
0000e0 04 81 e3 05 02 02 ff fa d0 fd fc 0e c8 07 08 09
       4 -127 -29 5 2 2 -1 -6 -48 -3 -4 14 -56 7 8 9
0000f0 e5 14 16 0a cd 0c 00 33 14 fd 0c 08 f6 d4 07 27
       -27 20 22 10 -51 12 0 51 20 -3 12 8 -10 -44 7 39

model_1/block_2_depthwise_BN/FusedBatchNormV3;model_1/block_2_depthwise/depthwise;model_1/block_3_depthwise/depthwise i1 [1, 3, 3, 48]
000000 05 fd 14 6c 05 51 00 1d 0e 07 08 07 f8 f9 d2 0a
       5 -3 20 108 5 81 0 29 14 7 8 7 -8 -7 -46 10
000010 fd 08 e8 8e fa ea 7f f7 fd 06 fa 07 fc 05 10 61
       -3 8 -24 -114 -6 -22 127 -9 -3 6 -6 7 -4 5 16 97
000020 14 1b 25 e6 02 22 fd 02 11 bc f8 f6 11 02 f9 f6
       20 27 37 -26 2 34 -3 2 17 -68 -8 -10 17 2 -7 -10
000030 7f 09 0f 81 1d 57 0b 0b 79 7f 07 2b cd e9 06 09
       127 9 15 -127 29 87 11 11 121 127 7 43 -51 -23 6 9
000040 7f c8 c5 c9 9c 18 93 10 10 47 e0 aa 17 16 07 82
       127 -56 -59 -55 -100 24 -109 16 16 71 -32 -86 23 22 7 -126
000050 05 c2 7f 0b d9 d1 f9 74 b1 a0 e3 03 de f7 81 16
       5 -62 127 11 -39 -47 -7 116 -79 -96 -29 3 -34 -9 -127 22
000060 e1 fd 07 0d 01 41 05 12 1b 08 f2 1f f3 fe 0f 04
       -31 -3 7 13 1 65 5 18 27 8 -14 31 -13 -2 15 4
000070 98 1d fd 4e e1 f3 ed fa fc c4 fd 1c f0 05 05 e8
       -104 29 -3 78 -31 -13 -19 -6 -4 -60 -3 28 -16 5 5 -24
000080 08 e9 10 ee 00 2f 29 f4 32 27 f0 0b d5 03 fe fa
       8 -23 16 -18 0 47 41 -12 50 39 -16 11 -43 3 -2 -6
000090 7e 06 00 9e 0e e5 23 f0 07 09 f4 35 fa 00 13 e0
       126 6 0 -98 14 -27 35 -16 7 9 -12 53 -6 0 19 -32
0000a0 ff ce c5 aa 0b b8 84 ed 05 62 f1 81 f7 22 0c 93
       -1 -50 -59 -86 11 -72 -124 -19 5 98 -15 -127 -9 34 12 -109
0000b0 10 cc fd 7f fe 3a d6 28 c2 81 27 a7 d4 f2 f4 fb
       16 -52 -3 127 -2 58 -42 40 -62 -127 39 -89 -44 -14 -12 -5
0000c0 1b 82 81 73 81 81 81 81 81 9e 7f 81 7f 7f 23 81
       27 -126 -127 115 -127 -127 -127 -127 -127 -98 127 -127 127 127 35 -127
0000d0 ab 7f 7f 95 7f 7f 70 7f 7f 81 81 1c 81 81 5e 7f
       -85 127 127 -107 127 127 112 127 127 -127 -127 28 -127 -127 94 127
0000e0 81 7f e3 d8 7f 81 7f 7f 7f b1 7f 7f 7f 87 66 6a
       -127 127 -29 -40 127 -127 127 127 127 -79 127 127 127 -121 102 106
0000f0 36 05 30 f2 06 c3 2d 13 e7 0e 96 f8 01 d9 7f 05
       54 5 48 -14 6 -61 45 19 -25 14 -106 -8 1 -39 127 5

model_1/block_2_expand/Conv2D i1 [48, 1, 1, 8]
000000 47 21 f3 f8 7f 09 d7 e8 f1 f8 0a 7f 0b ff 09 17
       71 33 -13 -8 127 9 -41 -24 -15 -8 10 127 11 -1 9 23
000010 28 81 d9 30 ea ad 59 ff 7f e5 f7 11 ea dc 1c 02
       40 -127 -39 48 -22 -83 89 -1 127 -27 -9 17 -22 -36 28 2
000020 0c cf 7f ff 06 d8 0e 9e 33 f8 fa ff 7f 0b f6 06
       12 -49 127 -1 6 -40 14 -98 51 -8 -6 -1 127 11 -10 6
000030 ef 49 f7 7f 22 3e cb cf f7 7f ff 06 08 fa 08 fa
       -17 73 -9 127 34 62 -53 -49 -9 127 -1 6 8 -6 8 -6
000040 7f 31 f9 0b dc ea fc e7 81 0e 01 13 26 10 f6 fc
       127 49 -7 11 -36 -22 -4 -25 -127 14 1 19 38 16 -10 -4
000050 b4 f5 18 7f 33 19 00 08 81 fd 02 b4 1a f5 eb e1
       -76 -11 24 127 51 25 0 8 -127 -3 2 -76 26 -11 -21 -31
000060 7f 1c f3 11 d3 eb f9 db f4 66 81 0b f3 70 a0 40
       127 28 -13 17 -45 -21 -7 -37 -12 102 -127 11 -13 112 -96 64
000070 c4 ec f3 7f 1d 08 f2 df 00 7f 00 fe ff f2 0a cc
       -60 -20 -13 127 29 8 -14 -33 0 127 0 -2 -1 -14 10 -52
000080 f3 81 dc 00 fa a1 79 e0 15 7f 01 ef 07 4f a8 ef
       -13 -127 -36 0 -6 -95 121 -32 21 127 1 -17 7 79 -88 -17
000090 f4 2a 81 ff 03 2d e2 3d c0 1f 02 09 81 01 0e 0d
       -12 42 -127 -1 3 45 -30 61 -64 31 2 9 -127 1 14 13
0000a0 81 ff ed 0b 58 e1 3e f7 bb 00 f1 fa 81 fe 11 00
       -127 -1 -19 11 88 -31 62 -9 -69 0 -15 -6 -127 -2 17 0
0000b0 81 f9 10 00 49 f1 25 28 ea e9 ea ed 00 51 81 a1
       -127 -7 16 0 73 -15 37 40 -22 -23 -22 -19 0 81 -127 -95
0000c0 f5 29 81 04 07 2d e8 4a 60 c0 fc 7f b8 e5 0c ec
       -11 41 -127 4 7 45 -24 74 96 -64 -4 127 -72 -27 12 -20
0000d0 05 eb fb 03 fd 6c 7f e7 3e ec f9 0c 7f 1a 1e f1
       5 -21 -5 3 -3 108 127 -25 62 -20 -7 12 127 26 30 -15
0000e0 fc 7d d1 0d 16 55 e2 7f f1 11 f5 f4 04 4f 81 a7
       -4 125 -47 13 22 85 -30 127 -15 17 -11 -12 4 79 -127 -89
0000f0 fe fa 00 81 f5 fd fe f3 c5 0a 0c 0d 81 0e 0d fb
       -2 -6 0 -127 -11 -3 -2 -13 -59 10 12 13 -127 14 13 -5

model_1/block_1_project/Conv2D i1 [8, 1, 1, 48]
000000 f4 00 08 a0 08 1c 04 06 03 08 01 fa 5e 00 03 04
       -12 0 8 -96 8 28 4 6 3 8 1 -6 94 0 3 4
000010 00 f9 f9 03 4f fd fd 06 20 25 0d 0e 01 08 00 81
       0 -7 -7 3 79 -3 -3 6 32 37 13 14 1 8 0 -127
000020 09 08 fa ff e5 00 f1 1f 08 e7 f7 06 06 00 03 04
       9 8 -6 -1 -27 0 -15 31 8 -25 -9 6 6 0 3 4
000030 d7 02 f7 fd 2d 1a e0 4c 10 0c e8 e4 0b 00 0f 20
       -41 2 -9 -3 45 26 -32 76 16 12 -24 -28 11 0 15 32
000040 00 26 0f cf fa 17 7f 14 e3 01 35 01 11 fa 0e f5
       0 38 15 -49 -6 23 127 20 -29 1 53 1 17 -6 14 -11
000050 0d f8 fa e9 01 c8 0a 02 fc f5 b1 f9 e0 08 d0 a4
       13 -8 -6 -23 1 -56 10 2 -4 -11 -79 -7 -32 8 -48 -92
000060 c0 0c 03 09 2a f3 1b 16 f4 38 0c ff 0c 00 08 35
       -64 12 3 9 42 -13 27 22 -12 56 12 -1 12 0 8 53
000070 00 08 81 14 01 0b 0a f3 e2 03 29 fc 07 1d 18 0a
       0 8 -127 20 1 11 10 -13 -30 3 41 -4 7 29 24 10
000080 03 f9 f4 f1 12 07 01 03 20 f5 e2 02 1d ca 1c 13
       3 -7 -12 -15 18 7 1 3 32 -11 -30 2 29 -54 28 19
000090 00 fd ff 08 fb 22 04 fa 3d 10 fb fb 1e 00 e2 fb
       0 -3 -1 8 -5 34 4 -6 61 16 -5 -5 30 0 -30 -5
0000a0 00 fe fa 04 01 01 03 ec f6 f8 f5 00 01 01 ff fe
       0 -2 -6 4 1 1 3 -20 -10 -8 -11 0 1 1 -1 -2
0000b0 d1 2d d2 00 05 02 02 81 00 08 ff cb ff 00 01 06
       -47 45 -46 0 5 2 2 -127 0 8 -1 -53 -1 0 1 6
0000c0 03 ff 55 1e 07 ea fb fc 00 fa 02 fa b2 00 f8 05
       3 -1 85 30 7 -22 -5 -4 0 -6 2 -6 -78 0 -8 5
0000d0 00 06 03 02 3e 04 02 fd ef 15 fd 2b fc fb 01 60
       0 6 3 2 62 4 2 -3 -17 21 -3 43 -4 -5 1 96
0000e0 01 03 fd fc 0e f7 f6 ee fc 81 02 05 ff fd fc 02
       1 3 -3 -4 14 -9 -10 -18 -4 -127 2 5 -1 -3 -4 2
0000f0 f5 2e 02 f8 00 2a 17 0a e9 1c 0d 35 14 00 81 fd
       -11 46 2 -8 0 42 23 10 -23 28 13 53 20 0 -127 -3

model_1/block_1_depthwise_BN/FusedBatchNormV3;model_1/block_1_depthwise/depthwise;model_1/block_3_depthwise/depthwise i1 [1, 3, 3, 48]
000000 d7 ec f9 ef 07 d9 b1 bd e7 cd 09 41 22 b9 72 d3
       -41 -20 -7 -17 7 -39 -79 -67 -25 -51 9 65 34 -71 114 -45
000010 8f ab 24 f9 ff b9 91 b1 dd 82 c0 ec 45 10 5f 1b
       -113 -85 36 -7 -1 -71 -111 -79 -35 -126 -64 -20 69 16 95 27
000020 81 a7 f9 37 14 30 81 4e b5 f0 6a 93 fd dd a9 6d
       -127 -89 -7 55 20 48 -127 78 -75 -16 106 -109 -3 -35 -87 109
000030 4b 0c e5 e3 39 81 81 af 3d b4 8c 6d 25 ae 00 3e
       75 12 -27 -29 57 -127 -127 -81 61 -76 -116 109 37 -82 0 62
000040 cc 90 3b 07 0a 93 81 b9 fc 81 88 d9 c8 16 c9 36
       -52 -112 59 7 10 -109 -127 -71 -4 -127 -120 -39 -56 22 -55 54
000050 1c 81 40 56 0d 47 a4 7f 81 05 7e 81 02 e9 81 60
       28 -127 64 86 13 71 -92 127 -127 5 126 -127 2 -23 -127 96
000060 e1 2b 07 fc bf 96 c5 ef 55 fa 81 26 07 b9 9c f5
       -31 43 7 -4 -65 -106 -59 -17 85 -6 -127 38 7 -71 -100 -11
000070 81 e7 1b 0c f1 b5 dc e8 f6 e4 c4 f5 f6 14 e8 09
       -127 -25 27 12 -15 -75 -36 -24 -10 -28 -60 -11 -10 20 -24 9
000080 68 aa 47 1f 0f 22 fa 10 b2 03 07 b1 ef 05 ca 10
       104 -86 71 31 15 34 -6 16 -78 3 7 -79 -17 5 -54 16
000090 ab 81 d3 d5 f6 36 61 98 e6 93 ec 6f 5a c0 1b 9f
       -85 -127 -45 -43 -10 54 97 -104 -26 -109 -20 111 90 -64 27 -97
0000a0 87 a5 57 b2 2a a9 99 81 2a 87 b0 dc 7f c4 7f 55
       -121 -91 87 -78 42 -87 -103 -127 42 -121 -80 -36 127 -60 127 85
0000b0 d5 ac f1 54 dd b3 95 5a 2c 3b 67 95 a4 8b 51 79
       -43 -84 -15 84 -35 -77 -107 90 44 59 103 -107 -92 -117 81 121
0000c0 7f ad 81 81 7f 28 5c 81 65 81 91 7f 7f f2 fa 7f
       127 -83 -127 -127 127 40 92 -127 101 -127 -111 127 127 -14 -6 127
0000d0 c4 81 7f 81 7f 81 88 8a 7f 9b 81 81 87 81 bb 7f
       -60 -127 127 -127 127 -127 -120 -118 127 -101 -127 -127 -121 -127 -69 127
0000e0 1c 93 7f 7f bc 81 9f 59 3e 7f 7f 8a 90 81 7d 7f
       28 -109 127 127 -68 -127 -97 89 62 127 127 -118 -112 -127 125 127
0000f0 cc 1f c2 ac 88 ea 1f da 7f ed b1 22 37 ba e7 d5
       -52 31 -62 -84 -120 -22 31 -38 127 -19 -79 34 55 -70 -25 -43

model_1/block_1_expand/Conv2D i1 [48, 1, 1, 8]
000000 0a 81 34 cf 1a ed c7 13 47 42 e8 b2 04 f0 b7 7f
       10 -127 52 -49 26 -19 -57 19 71 66 -24 -78 4 -16 -73 127
000010 1b 07 cf 7e 30 7f 32 5c 44 42 ba 7f a5 02 05 03
       27 7 -49 126 48 127 50 92 68 66 -70 127 -91 2 5 3
000020 da a1 46 12 07 1c e7 81 1a 07 dc 36 fd d8 2d 7f
       -38 -95 70 18 7 28 -25 -127 26 7 -36 54 -3 -40 45 127
000030 34 e5 81 ac 72 0d 28 e0 7f 0e 10 e9 1a fd 4a cc
       52 -27 -127 -84 114 13 40 -32 127 14 16 -23 26 -3 74 -52
000040 16 89 02 7d 08 15 fb 81 73 81 0d f8 ee 11 88 65
       22 -119 2 125 8 21 -5 -127 115 -127 13 -8 -18 17 -120 101
000050 81 dc 93 1c f7 06 a9 2d f1 ce fa 9a 81 e8 2c f1
       -127 -36 -109 28 -9 6 -87 45 -15 -50 -6 -102 -127 -24 44 -15
000060 10 fe d7 41 c0 ee 32 7f 00 00 00 00 00 00 00 00
       16 -2 -41 65 -64 -18 50 127 0 0 0 0 0 0 0 0
000070 fc d7 fb 03 2a 7f 2a 2a 29 0a 16 81 50 2d c7 44
       -4 -41 -5 3 42 127 42 42 41 10 22 -127 80 45 -57 68
000080 00 00 00 00 00 00 00 00 15 20 7f 0e e5 f9 17 1f
       0 0 0 0 0 0 0 0 21 32 127 14 -27 -7 23 31
000090 53 81 10 26 02 18 93 07 81 ef 15 4b c8 c0 a7 45
       83 -127 16 38 2 24 -109 7 -127 -17 21 75 -56 -64 -89 69
0000a0 25 1f d3 6d e2 81 01 3b 38 18 7f 07 f5 fa 3c 09
       37 31 -45 109 -30 -127 1 59 56 24 127 7 -11 -6 60 9
0000b0 b9 f0 81 01 01 09 9e 04 99 7f e4 eb 0a f8 7f b0
       -71 -16 -127 1 1 9 -98 4 -103 127 -28 -21 10 -8 127 -80
0000c0 09 cc ce 58 ff c5 5d 7f 0b 17 10 0b 7f 78 ab d3
       9 -52 -50 88 -1 -59 93 127 11 23 16 11 127 120 -85 -45
0000d0 b7 e8 81 fb 08 12 a3 06 00 ed da 03 d7 7f 49 3a
       -73 -24 -127 -5 8 18 -93 6 0 -19 -38 3 -41 127 73 58
0000e0 00 e2 e5 2c 0b 7f 38 3d 5b 21 7f fc ec ed 5f fa
       0 -30 -27 44 11 127 56 61 91 33 127 -4 -20 -19 95 -6
0000f0 a6 7f e5 e3 04 f4 77 ce d2 a5 ef 0b 2a b0 7f 71
       -90 127 -27 -29 4 -12 119 -50 -46 -91 -17 11 42 -80 127 113

model_1/expanded_conv_project/Conv2D i1 [8, 1, 1, 16]
000000 00 eb 06 00 7f ff ff fc 01 81 a3 fa 00 7c 02 00
       0 -21 6 0 127 -1 -1 -4 1 -127 -93 -6 0 124 2 0
000010 00 e0 04 57 4a 09 0f 04 01 fc 7f d4 00 1f f1 00
       0 -32 4 87 74 9 15 4 1 -4 127 -44 0 31 -15 0
000020 00 01 fc f5 c1 01 07 01 00 03 ed fe 00 7f f9 00
       0 1 -4 -11 -63 1 7 1 0 3 -19 -2 0 127 -7 0
000030 00 fb ef 81 52 13 45 0d 02 3a 00 2f 00 fc 16 00
       0 -5 -17 -127 82 19 69 13 2 58 0 47 0 -4 22 0
000040 00 31 e7 24 c9 25 7f 05 fe c3 12 f5 00 f6 08 00
       0 49 -25 36 -55 37 127 5 -2 -61 18 -11 0 -10 8 0
000050 00 f4 f8 02 e9 ea f0 0b 01 08 fa d7 00 fa 7f 00
       0 -12 -8 2 -23 -22 -16 11 1 8 -6 -41 0 -6 127 0
000060 00 0f fa 08 36 f1 e9 f9 ff 95 6c 46 00 7f 3e 00
       0 15 -6 8 54 -15 -23 -7 -1 -107 108 70 0 127 62 0
000070 00 0c fa 7f 09 ff 17 0b 00 47 c8 4b 00 f9 32 00
       0 12 -6 127 9 -1 23 11 0 71 -56 75 0 -7 50 0

model_1/expanded_conv_depthwise_BN/FusedBatchNormV3;model_1/expanded_conv_depthwise/depthwise;model_1/block_5_project/Conv2D i1 [1, 3, 3, 16]
000000 94 12 ae 82 27 bd 50 b4 a6 fd f8 1d 81 05 36 b7
       -108 18 -82 -126 39 -67 80 -76 -90 -3 -8 29 -127 5 54 -73
000010 33 19 81 7f 7f 81 7f 81 ac 7f 81 33 97 05 7f e7
       51 25 -127 127 127 -127 127 -127 -84 127 -127 51 -105 5 127 -25
000020 18 e8 5b fe b8 42 a2 4e a1 e5 04 f1 3d 01 9b e3
       24 -24 91 -2 -72 66 -94 78 -95 -27 4 -15 61 1 -101 -29
000030 81 7f ea 0e d4 0f e4 0e e5 01 03 93 cf 08 e3 f2
       -127 127 -22 14 -44 15 -28 14 -27 1 3 -109 -49 8 -29 -14
000040 b2 d6 c7 f2 f8 e5 08 e4 94 a7 15 f3 98 81 01 17
       -78 -42 -57 -14 -8 -27 8 -28 -108 -89 21 -13 -104 -127 1 23
000050 0e 01 41 02 03 20 e7 21 81 06 fe 02 eb 0c fc 2b
       14 1 65 2 3 32 -25 33 -127 6 -2 2 -21 12 -4 43
000060 8d b7 45 02 f9 26 d9 34 b4 00 ff 04 28 02 e5 17
       -115 -73 69 2 -7 38 -39 52 -76 0 -1 4 40 2 -27 23
000070 17 fc 1f fe e5 27 de 14 83 f3 00 53 c6 00 e4 91
       23 -4 31 -2 -27 39 -34 20 -125 -13 0 83 -58 0 -28 -111
000080 15 f9 13 00 04 0d 09 16 8d 04 ff 81 6b 03 11 81
       21 -7 19 0 4 13 9 22 -115 4 -1 -127 107 3 17 -127

model_1/Conv1/Conv2D i1 [16, 3, 3, 3]
000000 00 00 00 00 00 00 00 00 00 00 00 00 00 00 00 00
       0 0 0 0 0 0 0 0 0 0 0 0 0 0 0 0
000010 00 00 00 00 00 00 00 00 00 00 00 2e f5 20 fe e2
       0 0 0 0 0 0 0 0 0 0 0 46 -11 32 -2 -30
000020 12 8b 81 c9 03 f3 00 ed fa fe 03 d9 0c fd 06 fe
       18 -117 -127 -55 3 -13 0 -19 -6 -2 3 -39 12 -3 6 -2
000030 fd fc ff 29 e8 10 1c f0 ee 4b 6f f6 21 d0 fc 08
       -3 -4 -1 41 -24 16 28 -16 -18 75 111 -10 33 -48 -4 8
000040 03 f1 4c 7f d9 0d f4 ee 2f b5 07 4c d1 e0 1c c3
       3 -15 76 127 -39 13 -12 -18 47 -75 7 76 -47 -32 28 -61
000050 06 0c 24 fd 26 5c 0b 02 04 f7 1d 2b 03 4d 7f 13
       6 12 36 -3 38 92 11 2 4 -9 29 43 3 77 127 19
000060 f5 ed 00 0c 0b 07 23 1f 07 02 fd ff 32 4e e4 10
       -11 -19 0 12 11 7 35 31 7 2 -3 -1 50 78 -28 16
000070 4f de e2 fd e7 3d 61 21 2c 7e 0b 1b 2f e2 3e 4b
       79 -34 -30 -3 -25 61 97 33 44 126 11 27 47 -30 62 75
000080 15 38 7f 03 ea 15 0c 01 04 8c f2 01 94 f6 21 e5
       21 56 127 3 -22 21 12 1 4 -116 -14 1 -108 -10 33 -27
000090 ff d6 81 f9 d2 8c 00 14 ee fc 0b f4 01 ff f8 04
       -1 -42 -127 -7 -46 -116 0 20 -18 -4 11 -12 1 -1 -8 4
0000a0 0f f9 19 c3 27 30 aa 2c 09 ef 0d 24 a1 43 40 81
       15 -7 25 -61 39 48 -86 44 9 -17 13 36 -95 67 64 -127
0000b0 4c 06 e6 15 11 db 0f 0b d3 1c f2 07 00 e5 10 0b
       76 6 -26 21 17 -37 15 11 -45 28 -14 7 0 -27 16 11
0000c0 a3 dd 0b ee 1b 0d f2 f8 06 81 a6 01 fc 00 11 e6
       -93 -35 11 -18 27 13 -14 -8 6 -127 -90 1 -4 0 17 -26
0000d0 1e fd ed 0a 08 eb 1e 09 8a a5 b9 86 a2 b3 ae e8
       30 -3 -19 10 8 -21 30 9 -118 -91 -71 -122 -94 -77 -82 -24
0000e0 e6 85 a2 b4 81 9e 8d aa e1 dc 96 ca cb 91 c5 c4
       -26 -123 -94 -76 -127 -98 -115 -86 -31 -36 -106 -54 -53 -111 -59 -60
0000f0 d0 2b 04 f3 fd 05 05 ff 00 14 0a fa 68 70 f3 54
       -48 43 4 -13 -3 5 5 -1 0 20 10 -6 104 112 -13 84
